trainedDQN.pt (torch, 109229 bytes, 8 tensors)

hiddenLayers.0.weight f4 [100, 112]
0	0xbd46d301	-0.048541073
1	0x3b04b924	0.0020251954
2	0x3d4eb09e	0.050461404
3	0x3d49c4e5	0.04926004
4	0xbdaac0a2	-0.08337523
5	0xbd684b33	-0.05671234
6	0xbd052fa5	-0.03251614
7	0xbd97f95e	-0.0742061
8	0xbd94054b	-0.07227572
9	0xbbe98170	-0.007126026
10	0xbd2f4803	-0.042793285
11	0xbcf49c23	-0.029859608
12	0xbbc55090	-0.0060215667
13	0x3d27bd7d	0.040952194
14	0xbd95778f	-0.072981946
15	0xbd5dc5ff	-0.054143902
16	0xbd6ec362	-0.0582918
17	0x3c65a3ad	0.014016074
18	0xbd07b84d	-0.033134747
19	0xbc0da4ee	-0.008645279
20	0x3c0493eb	0.008091907
21	0x3cd694b0	0.026193947
22	0xbcda4cb0	-0.026647896
23	0x3d887e41	0.06664706
24	0xbc5aff60	-0.01336655
25	0xbd97c63e	-0.074108586
26	0x3d1f5e55	0.03890832
27	0xbc8983b4	-0.016786434
28	0xbc462bbb	-0.012095387
29	0xbd040133	-0.032227706
30	0x3d395c4e	0.045254044
31	0xbd88ca2a	-0.06679185
32	0xbd101fa7	-0.035186436
33	0x3b146be0	0.0022647306
34	0xbd9dcc46	-0.07704978
35	0x3cfe558c	0.031046651
36	0x3c63a658	0.01389464
37	0xbdbbe592	-0.091746464
38	0xbd962a98	-0.07332343
39	0xbd21757f	-0.039418694
40	0xbd47f6ba	-0.04881928
41	0xbdb2ba51	-0.08726943
42	0xba981200	-0.0011602044
43	0xbdaa0671	-0.0830201
44	0x3d1ee4be	0.038792364
45	0xbcf8ef08	-0.030387416
46	0xbcb30658	-0.02185361
47	0xbd64dffb	-0.055877667
48	0x3cf37804	0.029720314
49	0x3c6c5424	0.014424358
50	0x3db64fbd	0.089019276
51	0xbdbd6228	-0.092472374
52	0xbdbae445	-0.0912557
53	0xbd332341	-0.043734793
54	0x3d1effda	0.038818218
55	0xbd3405f3	-0.043950986
56	0x3d78aafd	0.060709942
57	0xbda62419	-0.08112354
58	0xbd52a84a	-0.051430024
59	0x3d52fa5e	0.0515083
60	0x3bbf8980	0.0058452487
61	0x3cc712f6	0.024301033
62	0xbbda8f8e	-0.006669945
63	0xbb850b70	-0.0040602013
64	0x3d7feb1c	0.062480077
65	0xbc92aeea	-0.017905671
66	0xbc89913c	-0.016792886
67	0x3c494a0b	0.01228572
68	0xbd34d338	-0.044146746
69	0xbd9960dd	-0.07489178
70	0x3d2d7ec2	0.042357214
71	0xbd2f52d3	-0.042803597
72	0x3cd72558	0.026262924
73	0x3d60b6d9	0.054861877
74	0xbdac492b	-0.08412393
75	0xbd9cf83a	-0.07664533
76	0x3d82621d	0.0636637
77	0xbdc7041b	-0.0971758
78	0x3d803bb5	0.06261388
79	0x3d31de10	0.043424666
80	0x3d271ec8	0.04080084
81	0xbd5510f6	-0.05201813
82	0x3d427633	0.047476005
83	0x3da24a7f	0.07924365
84	0x3d76ea38	0.060281962
85	0x3d79540f	0.06087118
86	0x3da5b915	0.08091942
87	0x3a97cd7f	0.0011581628
88	0x3d9f1494	0.07767597
89	0xbda5e2d3	-0.08099904
90	0xbdada545	-0.08478788
91	0x3c0b3612	0.008496778
92	0x3d959527	0.07303839
93	0x3c9744a4	0.018465348
94	0x3c5821ad	0.013191623
95	0xbd69c3bf	-0.057071444
96	0xbd038779	-0.03211162
97	0x3cc47e78	0.023986086
98	0xbd37f15f	-0.044907924
99	0xbdb8c480	-0.090218544
100	0xbcdd5678	-0.02701877
101	0x3d8cb709	0.06870849
102	0x3d472f86	0.048629306
103	0x3dac8aff	0.08424949
104	0xbda8108a	-0.082062796
105	0x3ca45cd8	0.020063803
106	0xbc747ba6	-0.014922058
107	0xbd7c5265	-0.061602015
108	0xbd286d10	-0.041119635
109	0x3c87f1fc	0.01659488
110	0x3da54033	0.08068886
111	0xbd351a20	-0.044214368
112	0x3f0a0063	0.5390684
113	0xbf243551	-0.64143854
114	0xbf052287	-0.5200581
115	0x3ed529b8	0.4163339
116	0xb9d6e59e	-0.0004098834
117	0x3cb91ddb	0.022597244
118	0xbcbf4478	-0.023348078
119	0xbd5542cd	-0.05206566
120	0x3d3eea2b	0.04661004
121	0xbbbc4860	-0.0057459325
122	0x3d8fe212	0.07025541
123	0xbbc70a76	-0.006074245
124	0xbdb2f79b	-0.08738633
125	0x3b2d2fd8	0.0026426222
126	0xbd387224	-0.045030728
127	0xbc1ea560	-0.009682983
128	0xbd84cbc6	-0.06484179
129	0xbdadb790	-0.084822774
130	0xbc181478	-0.009282224
131	0xbdb4dd9c	-0.08831331
132	0xbc99c026	-0.018768381
133	0x3c8db66c	0.0172989
134	0xbd894e8a	-0.06704433
135	0xbd5d9533	-0.054097366
136	0x3c69c5b8	0.014268331
137	0xbc954f6e	-0.018226352
138	0xbe2bf66c	-0.16793221
139	0xbc6b0d9f	-0.014346509
140	0x38e8761a	0.0001108462
141	0xbdc0f5d5	-0.09421889
142	0x3eb5bf95	0.35497728
143	0xbdc1ae04	-0.09457019
144	0xbe3cdf17	-0.18444477
145	0x3e93288c	0.28741872
146	0x3d2caec5	0.04215886
147	0xbde94dc5	-0.113917865
148	0x3e02141d	0.12702985
149	0xbd0f859b	-0.035039525
150	0xbba7bda7	-0.005119044
151	0xbd53b92b	-0.05169026
152	0xbdb5b90c	-0.088731855
153	0xbc79267a	-0.015206927
154	0x3dbd12ab	0.09232076
155	0xbdadf907	-0.08494764
156	0x3e842eec	0.2581705
157	0xbd5a2cbb	-0.053265315
158	0x3d0e3b0e	0.034724288
159	0xbd358b4a	-0.04432229
160	0xbe832ffa	-0.2562254
161	0xbdadd06c	-0.08487019
162	0x3d220faf	0.03956574
163	0xbdfe10e2	-0.12405564
164	0xbdb73a1a	-0.08946629
165	0x3caf53d7	0.021402283
166	0x3e487348	0.19575226
167	0xbd43cd8d	-0.04780345
168	0x3d87c619	0.06629581
169	0xbc79e948	-0.0152533725
170	0x3d86dce8	0.06585103
171	0xbbd1168e	-0.0063808626
172	0xbd4d1fcf	-0.050079163
173	0x3dfd9c2a	0.123833016
174	0x3cc91c05	0.024549494
175	0xbe35ad2d	-0.17741843
176	0xbe1cfa18	-0.15329778
177	0xbd44ab41	-0.048014883
178	0xbd751c54	-0.05984147
179	0x3c936afd	0.017995352
180	0x3ddea8b9	0.10872025
181	0x3e3a21a2	0.18176892
182	0x3e2d1217	0.16901432
183	0xbb8f8889	-0.00438029
184	0xbf3df47f	-0.74201196
185	0x3ce90210	0.028443366
186	0x3db1eb51	0.08687461
187	0xbdaeaac0	-0.08528662
188	0xbda69ccb	-0.08135375
189	0x3c01e2e5	0.007927631
190	0x3da0601f	0.07830834
191	0xbd91826e	-0.071049556
192	0x3e494064	0.1965347
193	0xbe0497d5	-0.12948544
194	0xbdbb94f1	-0.09159268
195	0x3d6d7657	0.057974186
196	0xbd6bc851	-0.057564083
197	0xbd048925	-0.032357354
198	0x3db2dc73	0.087334536
199	0x3d0839a8	0.03325811
200	0xbcc860d2	-0.02446023
201	0xbd041c30	-0.032253444
202	0xba77d500	-0.0009454042
203	0x3cb0effa	0.021598805
204	0xbcc8e665	-0.024523923
205	0xbdba7a03	-0.09105303
206	0xbd2d36b1	-0.042288486
207	0x3d1975a3	0.037465703
208	0xb8805c00	-6.120652e-05
209	0xbd0c6c2b	-0.034282845
210	0x3d868f99	0.06570358
211	0x3cb3bc6c	0.021940432
212	0xbc194f2b	-0.009357254
213	0x3cc66fbc	0.024223201
214	0xbd76eda9	-0.060285244
215	0x3a18162c	0.0005801644
216	0x3d7bc473	0.061466645
217	0x3d343de2	0.04400433
218	0xbd20eae9	-0.039286528
219	0x3d6ed0e7	0.058304694
220	0xbd19ae04	-0.03751947
221	0x3d9f4f50	0.077787995
222	0xbb46bfe0	-0.0030326769
223	0x3b37c620	0.0028041676
224	0xbec3a86e	-0.3821444
225	0x3f0cb018	0.549562
226	0xbe9cd9b4	-0.30634844
227	0xbe0a7d88	-0.13524449
228	0x3d9fcd2a	0.07802804
229	0xbcaca514	-0.02107481
230	0xbd7e7c0f	-0.06213003
231	0xbc490000	-0.012268066
232	0x3d0e58ca	0.034752645
233	0x3c935cf0	0.017988652
234	0xbd195ffa	-0.037445046
235	0xbdc85c83	-0.0978327
236	0xbd192bbf	-0.037395235
237	0x3d1bcd3f	0.038037535
238	0xbda9ea4b	-0.08296641
239	0xbdb49de9	-0.088191815
240	0xbca7639b	-0.020433238
241	0x3d82eed8	0.06393212
242	0xbda993ff	-0.08280181
243	0x3c0b790d	0.0085127475
244	0x3db0eeec	0.08639321
245	0x3d886689	0.06660182
246	0x3c80322b	0.015648922
247	0x3d8ef1ca	0.06979711
248	0x3c839448	0.016061917
249	0xbd19db41	-0.037562612
250	0x3e90772a	0.28215915
251	0xbea34312	-0.31887108
252	0x3db6fa9e	0.0893452
253	0x3eb31656	0.34977978
254	0xbe63ac53	-0.22233705
255	0xbe331733	-0.17489319

hiddenLayers.0.bias f4 [100]
0	0xbd4f5d06	-0.050625823
1	0xbd81fff5	-0.06347648
2	0x3d4ee430	0.050510585
3	0x3b4c05d5	0.0031131406
4	0xbdb866bf	-0.09003972
5	0x3dbcf20a	0.09225853
6	0xbda1a467	-0.078926854
7	0x3d587259	0.052843425
8	0xbc7c6cc3	-0.01540679
9	0xbd7948c0	-0.060860395
10	0x3cdac624	0.026705809
11	0xbb9c2cfe	-0.0047661057
12	0x3d0fa1c9	0.0350664
13	0x3cc8f61c	0.024531417
14	0x3cc515e1	0.024058284
15	0xbdc0fb79	-0.094229646
16	0x3d23e259	0.040010784
17	0xbc59abc8	-0.013285585
18	0xbca9137a	-0.02063917
19	0xbdae8527	-0.085214905
20	0xbbde835d	-0.006790562
21	0x3d91aef7	0.0711345
22	0xbd57f436	-0.052723132
23	0xbb2cf8d0	-0.002639342
24	0x3cd2299e	0.02565461
25	0x3da7f1c0	0.08200407
26	0xbd9cfd59	-0.0766551
27	0x3db37a46	0.08763556
28	0xbd708f1b	-0.058730226
29	0x3d4a7c4b	0.04943494
30	0x3d9e5c8d	0.077324964
31	0xbd7cbfee	-0.061706476
32	0xbd7d3526	-0.061818264
33	0xbd1b76ee	-0.037955217
34	0xbd95f93d	-0.07322929
35	0xbdb3471d	-0.08753798
36	0x3d8ccb03	0.06874659
37	0xbcafb544	-0.021448739
38	0x3cc680ff	0.024231432
39	0x3a8f29f9	0.0010922543
40	0x3d3e163e	0.04640793
41	0x3a240ac0	0.00062577054
42	0xbda9aeb0	-0.08285272
43	0xbca75781	-0.020427467
44	0x3d569d47	0.052396085
45	0x3a80d109	0.0009827922
46	0xbd9e7adf	-0.077382796
47	0xbd66730a	-0.056262054
48	0xbd8658bc	-0.065598935
49	0xbd522c79	-0.051311944
50	0xbd4767e8	-0.048683077
51	0xbdb7c00f	-0.08972179
52	0x3d5367a1	0.0516125
53	0xbd145ef6	-0.036223374
54	0x3c824f20	0.01590687
55	0xbd17ed71	-0.037091676
56	0x3cc2b698	0.023768708
57	0xbd384999	-0.044992063
58	0x3d3d99ef	0.04628938
59	0x3cbfa85f	0.023395715
60	0x3da1689f	0.07881283
61	0xbc0117fa	-0.007879252
62	0x3d40e7ce	0.047096066
63	0x3d325104	0.043534294
64	0xbdbb4f98	-0.09146041
65	0xbc9e0e30	-0.019293875
66	0x3d0c0c1f	0.034191247
67	0xbcc9fe11	-0.024657281
68	0x3d214b1f	0.03937828
69	0xbd22d4cc	-0.03975372
70	0xbd8c6911	-0.06855977
71	0x3d781672	0.06056828
72	0xbdceda4a	-0.10100229
73	0x3b312d7f	0.0027035174
74	0x3ceae246	0.028672349
75	0xbd41a6f4	-0.04727836
76	0xbb5c6273	-0.0033628016
77	0x3c78729f	0.015164047
78	0x3d966ce3	0.07344987
79	0x3d4971a0	0.049180627
80	0xbd6db8e0	-0.05803764
81	0x3d53e4d2	0.051731892
82	0xbd6f65cf	-0.0584467
83	0x3ca13e1f	0.019682942
84	0x3db2ddf3	0.0873374
85	0x3d5b4253	0.05353005
86	0xbc769a5c	-0.015051451
87	0x3d8f1fa9	0.069884606
88	0xbd2132e9	-0.039355192
89	0x3d352d81	0.04423285
90	0xbc4b71a8	-0.0124172345
91	0x3d8ebb99	0.06969375
92	0x3d0df878	0.034660786
93	0xbd6567a9	-0.05600706
94	0xbced6270	-0.028977603
95	0x3d57ebf7	0.052715268
96	0xbd79f13b	-0.06102107
97	0x3d4d36d8	0.05010113
98	0xbd506277	-0.050875153
99	0xbdafabd0	-0.085776925

hiddenLayers.1.weight f4 [100, 100]
0	0xbda6e922	-0.08149935
1	0x3d813a51	0.06309951
2	0xbab0691a	-0.0013459057
3	0x3beff7b4	0.0073232297
4	0xbc0cc4f9	-0.008591884
5	0xbe7625f2	-0.24037912
6	0x3caa5d0a	0.020796318
7	0xbd9dc425	-0.07703427
8	0xbe2f3425	-0.17109735
9	0xbdb5deb0	-0.08880365
10	0x3da4b88f	0.08043014
11	0x3e675fbb	0.22595112
12	0x3e0514cc	0.12996215
13	0xbd7c3ddd	-0.061582435
14	0xbd9fcbd7	-0.07802551
15	0xbd97c010	-0.0740968
16	0x3dea27e6	0.11433391
17	0xbc6643d8	-0.014054261
18	0xbe619ba8	-0.22032034
19	0x3de5ab7c	0.11214349
20	0x3d016ff1	0.031600896
21	0x3d310845	0.043220777
22	0x3d1a01c2	0.037599333
23	0xbe427d07	-0.18993007
24	0xbd0aa4a7	-0.03384843
25	0xbd02aca2	-0.031902917
26	0x3b08cbbd	0.002087339
27	0xbe12271b	-0.1427273
28	0x3d9c7aff	0.07640647
29	0xbc075c03	-0.008261683
30	0x3d9776eb	0.07395729
31	0xbdd4e6ec	-0.10395607
32	0x3dc7477b	0.09730431
33	0xbe484cdf	-0.19560574
34	0xbd8ddff8	-0.06927484
35	0xb9f94184	-0.00047541794
36	0x3d88ce86	0.06680016
37	0x3db2c811	0.08729566
38	0x3d964d29	0.07338936
39	0xbd160059	-0.036621425
40	0x3d49aa05	0.04923441
41	0xbc77ec30	-0.015131995
42	0x3d4009e8	0.046884447
43	0xbd8a5920	-0.067552805
44	0xbcebf76c	-0.028804503
45	0xbe630f5d	-0.2217383
46	0xbc951f3d	-0.018203372
47	0xbe831696	-0.2560317
48	0x3d390ef2	0.04518027
49	0xbc90aa4b	-0.017659327
50	0xbd14a0ac	-0.03628604
51	0x3d54cbeb	0.051952284
52	0x3cc8575f	0.024455724
53	0xbdceac92	-0.10091509
54	0xbca23aac	-0.019803368
55	0x3cb4c72b	0.022067627
56	0xbd7c0d8d	-0.06153636
57	0x3d16e89e	0.036842935
58	0x3d2a9ae7	0.041651633
59	0xbdeaa60b	-0.114574514
60	0xbe0549ad	-0.13016386
61	0x3da79a2a	0.08183701
62	0x3d5a675d	0.05332123
63	0x3dd7c036	0.10534708
64	0x3c6fd3d0	0.014637902
65	0xbdc64927	-0.096819215
66	0xbdae04cf	-0.08497011
67	0x3bf7113a	0.0075398954
68	0x3dd5a6c8	0.104322016
69	0x3d21778e	0.039420657
70	0xbd74e1e4	-0.05978574
71	0xbd4b6333	-0.04965515
72	0xbdb74e12	-0.089504376
73	0x3dea369b	0.114361964
74	0xbe28b32b	-0.16474597
75	0xbe068b42	-0.1313906
76	0xbd196abe	-0.037455313
77	0x3e0ade7d	0.13561435
78	0xbd5cb1a2	-0.05388034
79	0xbdc67034	-0.0968937
80	0xbc4d4c40	-0.012530386
81	0xbb946fc7	-0.0045299265
82	0xbe11c990	-0.14237046
83	0xbe19d4c1	-0.15022565
84	0x3cf2fb54	0.029660858
85	0xbd0bba94	-0.03411348
86	0x3dd114fb	0.1020908
87	0x3d1791fe	0.037004463
88	0x3de6d0c7	0.1127029
89	0xbdf1e5ae	-0.11811386
90	0x3d25202e	0.040313892
91	0xbd7a928a	-0.061174907
92	0xbe7fb8fc	-0.2497291
93	0x3d7561ad	0.059907604
94	0xbe4e733d	-0.20161147
95	0xbda6f66d	-0.08152471
96	0x3ddf3dd1	0.109004624
97	0xbdaf77ca	-0.0856777
98	0x3d79f0fc	0.061020836
99	0xbe2645cc	-0.16237563
100	0x3d56938b	0.0523868
101	0xbe83323c	-0.25624263
102	0xbd1327f9	-0.035926793
103	0x3e115955	0.14194234
104	0xbbe70db1	-0.0070511927
105	0x3e37653b	0.1790971
106	0x3d7c5e4e	0.061613373
107	0xbecf1ddb	-0.40452465
108	0x3e301885	0.17196853
109	0x3da6c5c9	0.08143193
110	0x3c436ac3	0.011927309
111	0x3cfa8f11	0.030585798
112	0xbd079788	-0.033103496
113	0xbda7c663	-0.08192136
114	0xbca5743b	-0.020197025
115	0x3c906ccc	0.017630003
116	0xbe43148f	-0.19050811
117	0xbdaf986f	-0.08573996
118	0xbd35d7da	-0.044395305
119	0xbe1798b4	-0.14804345
120	0xbccd552d	-0.025065029
121	0x3e264ab4	0.16239434
122	0xbc92f8f4	-0.017940976
123	0xbe40423f	-0.18775271
124	0x3e05eabf	0.1307783
125	0x3e1d8206	0.15381631
126	0xbe651c3d	-0.22374053
127	0xbec859c8	-0.39130998
128	0x3c3f9dbf	0.011695324
129	0xbdb31a10	-0.087452054
130	0xbecf3346	-0.40468806
131	0x3dc7138d	0.09720526
132	0x3ba9ba53	0.0051796823
133	0xbd83353a	-0.064066365
134	0xbda02ac3	-0.07820656
135	0xbedb8b01	-0.4287949
136	0xbed3a6fe	-0.41338342
137	0xbd8d6eda	-0.06905909
138	0x3da8c28b	0.08240231
139	0x3bdd788f	0.0067587565
140	0x3d035bde	0.032070033
141	0x3d5d4fee	0.054031305
142	0xbd0706e9	-0.032965574
143	0x3c906b01	0.017629148
144	0xbd5ade80	-0.05343485
145	0xbe090236	-0.1337975
146	0x3ba08f20	0.0048998743
147	0xbec69ce5	-0.38791576
148	0x3daecfc1	0.0853572
149	0xbd7a996b	-0.061181467
150	0xbda3c872	-0.07997216
151	0xbdbff826	-0.093735024
152	0xbe320d37	-0.17387854
153	0x3cc4988f	0.023998527
154	0xbd9fb918	-0.07798976
155	0xbba15e26	-0.0049245534
156	0x3d8b710f	0.068086736
157	0x3c8c8621	0.017153801
158	0x3d99e1f4	0.075138
159	0xbce3c8ce	-0.027805712
160	0xbe6639a2	-0.22482923
161	0xbc13e499	-0.00902667
162	0xbea6c14a	-0.32569343
163	0x3a9b271f	0.001183722
164	0x3da67542	0.08127834
165	0xbda28728	-0.07935935
166	0xbe047de7	-0.12938653
167	0xbd787a77	-0.060663667
168	0xbe929722	-0.2863093
169	0xbdab8640	-0.083752155
170	0x3e251b4c	0.16123694
171	0x3d382d12	0.044964857
172	0xbd39e043	-0.04537989
173	0x3cce71ff	0.025200842
174	0x3d9bc752	0.07606377
175	0x3e333d83	0.17503934
176	0x3cfb6ec0	0.030692458
177	0xbe81c75b	-0.2534741
178	0xbd447e2a	-0.047971882
179	0xbdbc03fe	-0.09180449
180	0x3c7b5540	0.015340149
181	0xbe8d3792	-0.2758146
182	0xbdcbf8c8	-0.09959561
183	0xbdd60263	-0.10449674
184	0xbdb49933	-0.08818283
185	0x3d51648e	0.051121287
186	0x3bfd2fad	0.0077266307
187	0xbd4fb5ea	-0.050710596
188	0xbe53901d	-0.20660444
189	0x3dfae6b1	0.12251032
190	0xbc8faff8	-0.017539963
191	0xbcfbbcf4	-0.030729748
192	0x3df54607	0.11976247
193	0xbd4c1dd6	-0.04983314
194	0x3e34e672	0.17666033
195	0x3db59343	0.088659786
196	0xbd282d27	-0.041058686
197	0xbdf9c530	-0.12195814
198	0x39b51096	0.00034535368
199	0x3de2c80d	0.11073313
200	0x3db91145	0.09036497
201	0xbe24d441	-0.16096593
202	0x3ea452ea	0.32094508
203	0xbdba6182	-0.091006294
204	0xbe47d2ae	-0.19513962
205	0xbddc6a72	-0.1076249
206	0xbda53713	-0.08067145
207	0xbc89c5d4	-0.016817965
208	0xbd9c8213	-0.07641997
209	0x3da0490f	0.07826435
210	0xbe0a1157	-0.13483177
211	0xbe8a6594	-0.27030623
212	0x3d9e20a1	0.07721067
213	0x3b2089a0	0.0024496093
214	0xbdf8cd1e	-0.12148498
215	0x3db5a3da	0.08869143
216	0x3db45e4c	0.08807048
217	0xbcf79ab4	-0.030225135
218	0x3d8e81c3	0.06958344
219	0xbe12a8e2	-0.14322236
220	0x3d39965c	0.04530941
221	0x3e7d469f	0.24733971
222	0xbca2f154	-0.019890465
223	0x3dbb421a	0.09143467
224	0xbe524aa0	-0.2053628
225	0x3d81a00d	0.063293554
226	0xbe01a8e6	-0.12662086
227	0x3e047021	0.12933399
228	0x3e0a96f9	0.13534154
229	0xbd01283f	-0.031532522
230	0xbe9ce990	-0.30646944
231	0x3d644142	0.055726297
232	0xbeb95109	-0.36194637
233	0x3d8df124	0.069307595
234	0x3db04be9	0.08608229
235	0x3dbbb9ec	0.09166321
236	0xbd5dce70	-0.054151952
237	0x3d832119	0.06402797
238	0x3afe7cfa	0.0019415908
239	0x3d8c54b5	0.06852094
240	0x3d3d88b9	0.046272967
241	0x3cd76462	0.026292983
242	0xbda63434	-0.08115426
243	0x3d46045b	0.048343997
244	0xbcb18dc8	-0.021674052
245	0xbdb6d48b	-0.08927258
246	0x3d5cf51b	0.05394469
247	0xbe52db20	-0.20591402
248	0xbdac881e	-0.084244
249	0xbd9fb230	-0.077976584
250	0x3d3a162d	0.045431305
251	0xbd9cf2dc	-0.07663509
252	0xbe1c0a06	-0.15238199
253	0x3c08da87	0.008352882
254	0x3d2d2696	0.042273127
255	0xbce286eb	-0.027652225

hiddenLayers.1.bias f4 [100]
0	0xbd8efeb0	-0.069821715
1	0xbdbcc546	-0.092173144
2	0x3d99ca3c	0.07509276
3	0xbca02a4c	-0.019551419
4	0x3c8e2880	0.017353296
5	0x3d2dcc40	0.042431116
6	0xbd282260	-0.041048408
7	0xbdc72d7d	-0.09725473
8	0xbdbf1cb0	-0.093316436
9	0xbdbe0848	-0.09278923
10	0x3d279d08	0.04092124
11	0xbd0e0119	-0.034669016
12	0x3c8384be	0.016054507
13	0x3d9dd953	0.07707467
14	0x3dfb4125	0.12268285
15	0xbdd604a2	-0.104501024
16	0xbb5fbac6	-0.0034138425
17	0x3d5e33b2	0.05424852
18	0xbd9da235	-0.07696954
19	0x3ce81f48	0.028335229
20	0xbd2b6e63	-0.04185332
21	0xbdc92111	-0.0982076
22	0x3dac138d	0.084021665
23	0x3cd221b3	0.025650835
24	0xbdf0dc9f	-0.1176083
25	0xbd8b7528	-0.06809455
26	0x3c9cad49	0.019125598
27	0xbdcc338a	-0.09970768
28	0x3d28977c	0.04116009
29	0xb938f633	-0.00017639324
30	0xbc8663af	-0.016404955
31	0x3dad68f6	0.08467285
32	0x3d1eb50a	0.03874687
33	0x3d6298c9	0.05532149
34	0xbd943df1	-0.07238377
35	0xbdcee24d	-0.10101757
36	0xbd18ef1f	-0.03733742
37	0xbc8868f8	-0.016651616
38	0xbd536384	-0.051608577
39	0x3cb36306	0.021897804
40	0xbdf87d2f	-0.12133252
41	0xbda80e0e	-0.08205806
42	0xbcfc1297	-0.030770583
43	0x3d015c6a	0.031582274
44	0xbd93a03e	-0.07208298
45	0xbd232150	-0.03982669
46	0x3d4b9054	0.04969819
47	0xbcbc61fc	-0.022995941
48	0xbd907b3b	-0.07054754
49	0x3cbf3d43	0.023344642
50	0xbd609e5f	-0.054838534
51	0x3d3ed5a6	0.04659047
52	0xbd72ea77	-0.059305634
53	0x3d8b748a	0.068093374
54	0xbd8f57ae	-0.069991454
55	0xbdf197ba	-0.11796518
56	0xbcc8b728	-0.024501398
57	0x3dd615ff	0.10453414
58	0xbd6b43f2	-0.057437845
59	0xbc9d5c56	-0.019209068
60	0xbc723394	-0.014782805
61	0x3ca39fd1	0.019973667
62	0xbd9759d9	-0.07390184
63	0xbd7815f7	-0.060567822
64	0xbe04c6c9	-0.12966456
65	0xbd1d2985	-0.038369674
66	0xbd6b55cc	-0.05745487
67	0xbe1808b8	-0.14847076
68	0xbdbf3b32	-0.093374625
69	0xbd4de862	-0.050270446
70	0x3d086fc6	0.03330972
71	0xbda2f044	-0.07955983
72	0x3d83ebd4	0.06441465
73	0xbce6c478	-0.028169855
74	0xbdd857ef	-0.10563647
75	0xbdb158ae	-0.086594924
76	0xbdb395dd	-0.087688185
77	0xbdc81edc	-0.09771511
78	0x3c20dc14	0.009818096
79	0x3bea4d6c	0.0071503427
80	0xbd8f5fc4	-0.07000688
81	0xbdbdae40	-0.09261751
82	0xbd8f761f	-0.07004952
83	0x3d47f81c	0.0488206
84	0xbda5ff2e	-0.08105312
85	0xbd00d4e6	-0.031453036
86	0xbc55d3d2	-0.01305099
87	0xbd76ddc0	-0.06027007
88	0xbdf6c43b	-0.12049147
89	0x3d7576d6	0.059927784
90	0xbd98450b	-0.07435044
91	0xbd8537d1	-0.06504787
92	0x3d39e703	0.045386326
93	0x3ca3e923	0.02000863
94	0xbd93a331	-0.07208861
95	0x3de01cc1	0.10942984
96	0x3c995a34	0.01871977
97	0x3c518690	0.01278843
98	0xbb95a36a	-0.0045665996
99	0x3dc01837	0.093796186

hiddenLayers.2.weight f4 [50, 100]
0	0xbd29c2d6	-0.041445576
1	0xbe066346	-0.13123807
2	0xbe03faf7	-0.12888704
3	0x3e037238	0.1283654
4	0xbdc11295	-0.09427372
5	0x3deef09d	0.11666987
6	0xbdc47920	-0.09593415
7	0xbe1ac4a0	-0.15114069
8	0x3d9f4067	0.07775956
9	0xbd5aa29d	-0.053377736
10	0xbd0bf54e	-0.034169488
11	0xbdb44243	-0.08801701
12	0xbe627718	-0.22115743
13	0xbe0236c8	-0.1271621
14	0x3d89fa1b	0.06737157
15	0x3e07801e	0.13232467
16	0xbd6174cb	-0.055043023
17	0x3ceede24	0.02915866
18	0x3bc8fa1e	0.006133332
19	0x3ca4218e	0.020035531
20	0xbdfc7f2f	-0.12328946
21	0x3e49dfc0	0.1971426
22	0xbd326cc7	-0.04356077
23	0x3dd19c99	0.10234947
24	0xbc3fc812	-0.011705415
25	0xbecc6ec7	-0.39928266
26	0xbd404fef	-0.04695123
27	0xbe441e96	-0.19152293
28	0x3e57c2f7	0.21070467
29	0xbeafe920	-0.34357548
30	0xbe7d7866	-0.2475296
31	0xbce6ff9f	-0.028198062
32	0x3dc3db2a	0.095632866
33	0x3df8b4c9	0.12143857
34	0x3d8121db	0.063052855
35	0x3d1ee25b	0.03879009
36	0x3dd51c04	0.10405734
37	0xbe899622	-0.26872355
38	0xbd4d75cb	-0.050161164
39	0x3dbcce9f	0.09219097
40	0xbe6197a8	-0.22030509
41	0xbd843d78	-0.06457037
42	0xbcb81e82	-0.022475485
43	0xbcad878f	-0.021182803
44	0x3e3cb84a	0.18429676
45	0x3b4fcb08	0.003170671
46	0xbd839b06	-0.06426053
47	0x3da5fac8	0.08104473
48	0x3df29f4d	0.118467905
49	0x3d62b77c	0.055350766
50	0x3d32993e	0.043603174
51	0xbcf46c53	-0.02983681
52	0x3980c517	0.00024560906
53	0xbd5bcb5e	-0.053660743
54	0xbe07bce1	-0.13255645
55	0x3dfe9a3a	0.1243176
56	0xbdcab624	-0.09898022
57	0xbd28ed0a	-0.041241683
58	0xbdefad0b	-0.11702927
59	0x3d9fedb3	0.078090094
60	0x3c9d3024	0.019187994
61	0xbe114b67	-0.1418892
62	0x3d08a71d	0.033362497
63	0x3d8cb435	0.06870309
64	0x3cc9073b	0.02453958
65	0x3d00e445	0.031467695
66	0xbd732eb8	-0.059370726
67	0xbd865c77	-0.06560605
68	0x3e5e479b	0.21707003
69	0x3e34c2ab	0.17652385
70	0x3d085f9d	0.03329431
71	0x3dd1d388	0.102454245
72	0x3cabc4c2	0.020967845
73	0xbd174295	-0.036928732
74	0x3d3a3419	0.04545984
75	0xbea4fab4	-0.3222252
76	0x3e0fb900	0.14035416
77	0xbd41a92c	-0.047280475
78	0x3d838712	0.06422247
79	0xbda83543	-0.08213284
80	0xbba24c47	-0.0049529406
81	0xbeca8fdb	-0.39562878
82	0x3e581be5	0.21104391
83	0xbcfc4a66	-0.030797195
84	0xbde17e28	-0.110103905
85	0xbe1f22b8	-0.15540588
86	0x3e5dbf1b	0.21654932
87	0x3d8e7507	0.06955915
88	0x3ce02127	0.027359558
89	0x3e0638b4	0.13107568
90	0xbdf09875	-0.11747829
91	0x3d97af7a	0.074065164
92	0x3d99f731	0.07517851
93	0xbe2312a2	-0.15925077
94	0x3e237885	0.15963943
95	0x3ca1033c	0.019654863
96	0xbcb6f317	-0.022332711
97	0x3dc476b6	0.09592955
98	0x3b3a60df	0.0028439087
99	0x3c0e6cf0	0.008692965
100	0xbd816b04	-0.0631924
101	0xbdd4a943	-0.103838466
102	0xbd990874	-0.074723154
103	0x3e4f4caf	0.20244096
104	0xbf066ffb	-0.5251462
105	0x3ddf2545	0.108957805
106	0x3dd2b640	0.10288668
107	0xbee241cb	-0.4419082
108	0xbcf9349d	-0.030420596
109	0x3da1cb33	0.07900085
110	0xbed4a003	-0.4152833
111	0xbcd5c12e	-0.026093092
112	0xbe6ddab9	-0.23227967
113	0xbe97de5f	-0.29661843
114	0xbe3587ff	-0.1772766
115	0x3e174d9f	0.14775704
116	0xbde8e246	-0.11371283
117	0xbc1ad6b4	-0.009450603
118	0xbf04614a	-0.5171095
119	0xbccb9297	-0.024850173
120	0xbe009bcb	-0.1255943
121	0x3d0fd543	0.03511549
122	0xbf0293ca	-0.5100676
123	0xbc80a084	-0.01570154
124	0xbe4b99ad	-0.19882841
125	0xbdeb0d26	-0.11477117
126	0x3e0ef754	0.13961536
127	0xbe481f62	-0.19543222
128	0x3c70b951	0.01469262
129	0xbe6c0f6a	-0.23052755
130	0xbe069b56	-0.13145193
131	0xbd6f49e4	-0.058420077
132	0xbf2542c1	-0.64554983
133	0x3df943c9	0.12171132
134	0x3e385de8	0.18004572
135	0xbccc7c69	-0.024961667
136	0x3e393338	0.18085945
137	0x3e06629c	0.13123554
138	0x3d8ce0fe	0.06878851
139	0x3e03f92f	0.12888025
140	0x3d908479	0.07056517
141	0xbd032f98	-0.03202781
142	0xbdbcc27f	-0.09216785
143	0x3e3acbf8	0.1824187
144	0xbe77e5aa	-0.24208704
145	0x3e8a2df4	0.26988184
146	0xbd801acc	-0.06255111
147	0x3e8ed423	0.27896222
148	0x3d5a67d8	0.05332169
149	0x3dd3e7d2	0.103469506
150	0x3e422187	0.18958102
151	0xbef8bec1	-0.48583034
152	0xbeff3fe8	-0.49853444
153	0xbdc6ac4f	-0.09700834
154	0xbe433e4c	-0.19066733
155	0xbd5f20c4	-0.054474607
156	0xbe68f6e0	-0.22750425
157	0xbe13ff60	-0.14452887
158	0xbf1818e3	-0.59412974
159	0xbb98669b	-0.0046509034
160	0xbe9387f3	-0.2881466
161	0x3c004989	0.007830032
162	0x3d885b30	0.06658018
163	0xbe99baa3	-0.30025205
164	0x3d1f0482	0.03882266
165	0x3c906e6d	0.01763078
166	0x3ebbdade	0.3669042
167	0x3dc42e51	0.09579147
168	0xbe37e55f	-0.17958592
169	0x3d95055b	0.07276412
170	0xbdb8a41f	-0.090156786
171	0xbe1bd188	-0.15216649
172	0xbd48b6f8	-0.049002618
173	0xbeffdb0b	-0.49971804
174	0xbde6bad1	-0.11266101
175	0xbe2070dc	-0.15668052
176	0xbb18c03e	-0.0023307945
177	0xbd9c291b	-0.07625028
178	0x3dba15f3	0.09086218
179	0xbf114d91	-0.5675898
180	0xbd867252	-0.065647736
181	0xbe9b1c1d	-0.30294886
182	0x3d7c9be5	0.06167211
183	0x3e54423a	0.20728388
184	0x3dd8f045	0.10592703
185	0xbe95f091	-0.292851
186	0x3dc3db73	0.09563341
187	0xbb9e95d3	-0.004839638
188	0x3e78a66a	0.24282232
189	0xbcf7cbd0	-0.030248553
190	0x3eab21e8	0.33424306
191	0x3be75740	0.0070599616
192	0xbe3062e7	-0.17225228
193	0x3e38bc65	0.18040617
194	0x3d81b4a8	0.063332856
195	0xbdda65a5	-0.106639184
196	0xbe157ad3	-0.14597635
197	0xbeb799e3	-0.35859594
198	0xbe91e086	-0.2849161
199	0x3e2439e0	0.16037703
200	0xbe317eb2	-0.17333487
201	0xbe863586	-0.2621271
202	0x3d99cb6c	0.07509503
203	0x3bd07615	0.0063617327
204	0xbeae1e5a	-0.3400753
205	0x3dbf9530	0.09354627
206	0x3cc429f8	0.023945794
207	0x3da5a351	0.08087791
208	0x3e46149c	0.193438
209	0xbd8225ac	-0.063548416
210	0xbe53cf87	-0.20684634
211	0xbd14d8ed	-0.03633969
212	0x3d31a16d	0.04336684
213	0x3d094038	0.03350851
214	0x3e326809	0.17422499
215	0xbe856c03	-0.2605897
216	0x3dbcd636	0.09220545
217	0x3dffd91a	0.12492581
218	0xbe3c5204	-0.18390661
219	0x3e3e640e	0.18592855
220	0x3eaa7212	0.33290154
221	0x3e6a4f7e	0.22881886
222	0x3e3453bf	0.17610072
223	0xbe496522	-0.19667485
224	0x3e43a922	0.19107488
225	0xbebb6c8f	-0.3660626
226	0x3e71ee6f	0.23626111
227	0x3dc106b0	0.09425104
228	0x3e7e777b	0.24850266
229	0x3da9f8c4	0.082994014
230	0x3ceea208	0.029129997
231	0xbe067e74	-0.13134176
232	0x3db3d451	0.087807305
233	0xbd95204f	-0.07281553
234	0x3da525b0	0.08063829
235	0xbe13dd2f	-0.14439844
236	0xbc145293	-0.00905289
237	0xbcd31f7a	-0.025771845
238	0xbe1d2f4b	-0.15350072
239	0xbd8df580	-0.06931591
240	0x3e275e57	0.16344582
241	0xbdc3b1f0	-0.09555423
242	0x3dba13bc	0.09085795
243	0xbdb519a7	-0.088427834
244	0x3dc54021	0.09631372
245	0x3dade25f	0.084904425
246	0xbe3749e1	-0.17899276
247	0x3e0c57fa	0.13705435
248	0xbd87fc31	-0.066398986
249	0xbe4c91f4	-0.19977552
250	0xbe013528	-0.12617934
251	0x3ce80bf5	0.028326014
252	0xbe82cd9c	-0.25547493
253	0xbeb262d8	-0.34841037
254	0xbf1f185a	-0.6214653
255	0xbe15d4ea	-0.14632002

hiddenLayers.2.bias f4 [50]
0	0xbd328af7	-0.04358956
1	0xbdd6192e	-0.104540214
2	0xbd6a3dca	-0.057187833
3	0x3defce7f	0.11709308
4	0x3e1cda86	0.15317735
5	0xbd968610	-0.07349789
6	0x3d62bcf5	0.055355985
7	0xbd9c6625	-0.0763667
8	0x3dc55038	0.09634441
9	0x3dbfb23f	0.093601696
10	0x3d9b39a3	0.07579353
11	0x3dc0e71f	0.09419083
12	0xbc390a0d	-0.0112939
13	0x3d5158b1	0.051109973
14	0x3e0b8248	0.13623917
15	0xbda65418	-0.08121508
16	0x3d11daac	0.035608932
17	0x3cdd50f4	0.02701614
18	0x3e058850	0.1304028
19	0xbd8f8ca9	-0.07009251
20	0xbd3bd869	-0.04586068
21	0xbad16145	-0.0015974423
22	0x3d8ce063	0.06878736
23	0x3dd4634e	0.10370503
24	0xbdca2b4d	-0.0987154
25	0x3d9fa4f2	0.07795133
26	0xbdbc7511	-0.09202016
27	0x3da2267e	0.07917498
28	0x3de6372f	0.11240994
29	0x3e30ff0f	0.17284797
30	0x3d569d14	0.052395895
31	0x3c02ca87	0.007982857
32	0x3e1e2dad	0.15447111
33	0xb9b2a189	-0.0003407116
34	0x3d26c175	0.04071184
35	0x3d7326d4	0.0593632
36	0x3d16896e	0.036752157
37	0x3c0eed2f	0.008723541
38	0xbdc8e3db	-0.09809085
39	0x3dd18772	0.10230912
40	0x3d1b7949	0.037957463
41	0xbde0dc59	-0.10979528
42	0x3dc96853	0.098343514
43	0xbceec248	-0.029145375
44	0xbda1bb18	-0.078970134
45	0xbd04ec6b	-0.03245203
46	0x3dffcacc	0.12489852
47	0x3cbb8584	0.022890814
48	0xbd100722	-0.035163052
49	0xbd8cc94b	-0.06874331

outputLayer.weight f4 [3, 50]
0	0xbd2f4b10	-0.042796195
1	0xbde47269	-0.111546345
2	0x3ea37402	0.31924444
3	0x3e1b62fb	0.15174477
4	0xbbe5d586	-0.0070139794
5	0x3deab2fb	0.11459919
6	0x3e72fce9	0.2372929
7	0x3eada6dd	0.3391637
8	0xbdc0e238	-0.09418148
9	0xbc2d1433	-0.010563898
10	0x3e1ac650	0.15114713
11	0x3da5676f	0.08076369
12	0x3d934f61	0.07192875
13	0x3c8a6caf	0.016897528
14	0x3e1bda7c	0.15220064
15	0x3e89a45b	0.26883206
16	0x3e1c81d6	0.15283903
17	0xbe1320e3	-0.14368014
18	0x3de18eed	0.11013589
19	0x3d93415f	0.07190203
20	0x3da1fb40	0.0790925
21	0x3d1f713a	0.03892634
22	0xbe2ef416	-0.17085299
23	0x3e45a257	0.19300209
24	0xbe6b1531	-0.22957303
25	0xbd9d4113	-0.076784275
26	0xbdc0b1fe	-0.09408949
27	0x3e324190	0.17407823
28	0x3db8e896	0.09028737
29	0xbd3251c4	-0.04353501
30	0x3e0b4c02	0.13603213
31	0x3ce3ea17	0.027821584
32	0xbdaeaf51	-0.08529533
33	0xbe0f7ac5	-0.14011677
34	0xbdba3000	-0.090911865
35	0x3ea26156	0.31714886
36	0x3d5a127d	0.053240288
37	0xbee56fdb	-0.448119
38	0xbdc75279	-0.09732527
39	0x3956712b	0.00020450789
40	0x3d647d5e	0.055783622
41	0x3c836cba	0.016043056
42	0x3d7416df	0.059592124
43	0xbe07a825	-0.13247736
44	0xbc8e706a	-0.017387588
45	0xbe89ca16	-0.26911992
46	0xbdad51c9	-0.08462865
47	0xbe23b076	-0.15985283
48	0x3e422e85	0.18963058
49	0x3d91db99	0.07121963
50	0x3e6178ea	0.22018781
51	0xbd017384	-0.031604305
52	0x3ec15730	0.3776183
53	0x3dabffa2	0.083983675
54	0x3e154d4b	0.14580266
55	0x3ed31adb	0.41231427
56	0xbe9b2c7a	-0.3030737
57	0xbe386cf7	-0.18010317
58	0xbc3c6fc1	-0.011501254
59	0x3cd65c63	0.0261671
60	0xbcc2147d	-0.02369141
61	0x3da9f89f	0.08299374
62	0x3e4308cc	0.19046324
63	0x3e10e88b	0.14151208
64	0x3d688dbe	0.0567758
65	0x3e9a3c63	0.30124196
66	0xb9f29dbe	-0.00046275364
67	0x3e10d87a	0.1414508
68	0xbdc30a96	-0.095235035
69	0xbc897400	-0.016778946
70	0xbe584bf3	-0.21122722
71	0xbea5e764	-0.324031
72	0xbcee399f	-0.02908021
73	0x3d67fb79	0.056636307
74	0xbd873699	-0.066022106
75	0xbe097524	-0.13423592
76	0xbc9eb140	-0.019371629
77	0xbb866d4e	-0.0041023856
78	0xbcacfad6	-0.021115702
79	0xbd929ca5	-0.07158784
80	0x3d235a30	0.03988093
81	0xbd7f825c	-0.06238018
82	0xbc216a5d	-0.009852019
83	0x3e139b97	0.14414822
84	0xbdf0b645	-0.11753515
85	0xbef22b79	-0.47298792
86	0x3cde2764	0.027118392
87	0xbe0e7aa5	-0.13913973
88	0x3e15034e	0.14552042
89	0xbdf6c325	-0.120489396
90	0x3d933d1c	0.0718939
91	0xbd18bc22	-0.037288792
92	0x3d2a4a9e	0.041575067
93	0xbe9cadfc	-0.3060149
94	0x3d16e1a3	0.036836278
95	0x3e18d849	0.14926256
96	0xbe12efef	-0.1434934
97	0x3e24526c	0.16047066
98	0xbe7089c9	-0.23490061
99	0xbe84e3c2	-0.25955015
100	0x3de47060	0.11154246
101	0xbf09bee3	-0.53806895
102	0x3ca366fd	0.01994657
103	0x3e5d97a1	0.21639873
104	0xbe7b1631	-0.24520184
105	0x3e476e11	0.19475581
106	0x3e957375	0.2918965
107	0x399925f0	0.000292107
108	0x3e634456	0.22194037
109	0x3e6856d8	0.22689378
110	0xbe0da0b0	-0.13830829
111	0x3d049a61	0.03237379
112	0x3ec36f1e	0.38170713
113	0x3d04f15a	0.032456733
114	0xbccc961f	-0.024973927
115	0x3ddc3c62	0.107537046
116	0xbd465236	-0.048418246
117	0xbe9bdfef	-0.30444285
118	0xbe42b70a	-0.19015136
119	0x3e028b50	0.12748456
120	0x3ec1bc39	0.37838915
121	0x3d907f04	0.07055476
122	0xbe5ede73	-0.21764545
123	0xbe37eeb1	-0.17962147
124	0x3e477733	0.19479065
125	0xbe41d443	-0.18928628
126	0x3d77f8b4	0.060539916
127	0x3dfc0612	0.12305845
128	0x3e5e1900	0.21689224
129	0xbe2a9fba	-0.16662493
130	0xbe31fa2c	-0.17380589
131	0x3e60fdf8	0.21971881
132	0xbe3374bd	-0.17525001
133	0xbe997fda	-0.29980356
134	0xbe1b2091	-0.15149142
135	0x3dd4365b	0.1036193
136	0xbe4222ab	-0.18958537
137	0xbe8137ba	-0.25237828
138	0xbf2459c5	-0.6419948
139	0xbe1c63da	-0.15272465
140	0xbe9ffdfb	-0.3124846
141	0xbdb7f553	-0.08982339
142	0xbd8cca36	-0.06874506
143	0xbe932d87	-0.28745672
144	0x3d5ceb0f	0.053935107
145	0x3cb731a2	0.022362534
146	0x3ea5157f	0.32242963
147	0x3da50da0	0.080592394
148	0xbf04b166	-0.5183319
149	0x3e990158	0.29883838

outputLayer.bias f4 [3]
0	0x3e052496	0.13002238
1	0x3e20befe	0.15697858
2	0xbe163c3c	-0.14671415
