trainedDQNRR.pt (torch, 68287 bytes, 6 tensors)

hiddenLayers.0.weight f4 [100, 112]
0	0x3e914d82	0.28379446
1	0xbea69bb8	-0.3254068
2	0xbf2d7ee4	-0.67771745
3	0x3f26534b	0.64970845
4	0xbd702e79	-0.05863807
5	0xbc62abc9	-0.013834902
6	0x3d6a0c02	0.057140358
7	0x3da117e8	0.07865888
8	0x3d2b78dc	0.041863307
9	0xbdb1e955	-0.08687083
10	0xbdb844ef	-0.08997523
11	0xbd134055	-0.035950024
12	0x3d58debe	0.0529468
13	0x3cd5bbd5	0.026090542
14	0xbd0042bc	-0.031313643
15	0xbd90a7db	-0.07063266
16	0x3d7bb293	0.0614496
17	0x3d596bb8	0.053081244
18	0xbbbfcb00	-0.005853057
19	0xbdc6529c	-0.09683725
20	0x3c04d953	0.008108455
21	0xbcc98770	-0.024600714
22	0x3d486442	0.04892374
23	0xbd1ef966	-0.038812064
24	0x3bbcbfd0	0.0057601705
25	0xbc23e92c	-0.010004323
26	0x3da0dc53	0.078545235
27	0x3e21ecdb	0.1581301
28	0x3db30229	0.087406464
29	0xbe5dbe5b	-0.21654646
30	0x3cb66e58	0.022269413
31	0x3b5ca210	0.0033665933
32	0xbe829988	-0.2550776
33	0xbd8e4e70	-0.069485545
34	0x3d05441b	0.032535654
35	0xbe3de8ba	-0.1854581
36	0xbdc80ef1	-0.09768475
37	0x3d3f1a22	0.04665578
38	0x3d5aae84	0.053389087
39	0xbd7a64af	-0.061131176
40	0x3c433b59	0.011916005
41	0x3c1a1d18	0.009406351
42	0x3dbd8353	0.09253564
43	0xbd49f5a4	-0.049306527
44	0x3e5af591	0.21382739
45	0xbeb4da55	-0.35322824
46	0x3e054a10	0.13016534
47	0xbe0528f4	-0.13003904
48	0xbda31eec	-0.07964882
49	0xbd19411c	-0.03741561
50	0x3d3b8a0f	0.04578596
51	0x3f470fb9	0.77758366
52	0x3d54bb3e	0.05193638
53	0xbdd45ec4	-0.103696376
54	0x3e8a0dba	0.26963598
55	0xbc15290e	-0.0091040265
56	0x3d0e1764	0.034690276
57	0x3d8c004b	0.068359934
58	0xbd763aea	-0.06011478
59	0xbd92a8d6	-0.07161109
60	0x3d9b3ab7	0.07579558
61	0x3d076994	0.03305967
62	0x3e59c67f	0.21267127
63	0xbeb334af	-0.35001132
64	0x3d3fece9	0.046856795
65	0x3dc104d0	0.09424746
66	0xbec317ef	-0.38104197
67	0x3cd2cbae	0.025731888
68	0x3e59a988	0.21256077
69	0x3e915840	0.28387642
70	0x3ddbdebb	0.10735842
71	0x3d9dd358	0.07706326
72	0x3dcfadac	0.10140547
73	0xbb8cbf86	-0.0042952923
74	0xbd0d2c31	-0.034465972
75	0x3d8d8c1f	0.069114916
76	0x3d7eeb44	0.062236086
77	0xbd821d5f	-0.06353258
78	0xbda4fa28	-0.08055526
79	0xbe441a00	-0.19150543
80	0xbf021987	-0.508202
81	0xbd44ce9a	-0.048048593
82	0xbca0e9f9	-0.019642817
83	0xbe29de9e	-0.16588828
84	0x3ec968d1	0.3933778
85	0xbd04e679	-0.03244636
86	0x3e9ec9cb	0.3101333
87	0xbde6d586	-0.11271195
88	0x3a88b02b	0.0010428479
89	0x3d97c895	0.07411305
90	0x3c7806b8	0.015138321
91	0xbc83eb0c	-0.01610329
92	0xbd6d1073	-0.057877015
93	0x3da824ef	0.082101695
94	0xbc8fdc8f	-0.017561225
95	0xbdc6a387	-0.09699159
96	0x3d80bcdd	0.06286023
97	0x3d8235d3	0.063579224
98	0x39d21048	0.00040066452
99	0xbca00e0c	-0.019537948
100	0x3c9f18f6	0.019421082
101	0xbc8de14f	-0.01731935
102	0x3da329af	0.07966935
103	0x3b2eefb9	0.0026693179
104	0x3c1472e9	0.0090606
105	0x3dbfcbfd	0.093650796
106	0xbd35c2db	-0.04437528
107	0xbdc5cc1a	-0.0965807
108	0xbb66aa00	-0.0035196543
109	0x3db15ab0	0.086598754
110	0x3da4e7fe	0.080520615
111	0xbd6c1791	-0.057639662
112	0x3f005f80	0.5014572
113	0xbf1b86a5	-0.60752326
114	0x3ebec458	0.37259173
115	0xbebf37ce	-0.37347263
116	0x3d9b1748	0.075728
117	0xbc0b0458	-0.008484922
118	0x3d813e29	0.06310684
119	0x3cd40b4a	0.02588429
120	0xbbc9ba81	-0.006156266
121	0x3d7cc2fe	0.061709397
122	0xbdbd4232	-0.092411414
123	0xbd5c1891	-0.053734366
124	0xbd1527d0	-0.03641492
125	0x3d663dd1	0.056211296
126	0x3cf0d4bd	0.029398317
127	0x3ccd7cac	0.025083862
128	0x3aa9250b	0.0012904716
129	0x3db108ad	0.08644233
130	0x3c716e20	0.0147357285
131	0xbd3edb2a	-0.04659573
132	0xbd7ba378	-0.061435193
133	0xbd065a82	-0.03280116
134	0xbd7c76f5	-0.061636884
135	0xbc2f13eb	-0.010685901
136	0x3db662a7	0.08905535
137	0xbad5687e	-0.0016281751
138	0xbdebfb99	-0.11522598
139	0xbe903260	-0.28163433
140	0x3e095764	0.13412243
141	0xbdc6c562	-0.097056165
142	0xbce22759	-0.027606653
143	0xbe244690	-0.16042542
144	0xbd911093	-0.070832394
145	0x3e86d7fa	0.26336652
146	0xbe302e24	-0.17205101
147	0x3ebe9d83	0.37229547
148	0xbeff6d66	-0.49888152
149	0xbd35a486	-0.044346355
150	0xbc28339b	-0.01026621
151	0x3d8c0327	0.06836539
152	0xbd0f5823	-0.034996163
153	0xbd23f576	-0.04002901
154	0x3b72a700	0.003702581
155	0x3d76af60	0.060225844
156	0x3d816931	0.06318892
157	0x3e5dfb5e	0.2167792
158	0xbdd5afa5	-0.10433892
159	0x3daed6ad	0.0853704
160	0x3e413a9f	0.18870018
161	0x3d6c8c7d	0.057751168
162	0xbe567f60	-0.20947027
163	0x3cea0bfd	0.02857017
164	0xbd3705da	-0.044683315
165	0xbe46a70e	-0.19399664
166	0xbd8ffca7	-0.070306115
167	0x3d29d471	0.041462366
168	0x3d406c7b	0.046978455
169	0xbcddb5e8	-0.027064279
170	0xbce9d4c5	-0.02854384
171	0x3c41fcb4	0.011840034
172	0xbdb797e3	-0.08964517
173	0xbdf76fa9	-0.12081844
174	0x3e3431ec	0.17597169
175	0xbe2a6144	-0.16638666
176	0xbc54f339	-0.012997442
177	0x3ebeff60	0.3730421
178	0xbe6210dd	-0.22076745
179	0x3e1bc351	0.15211226
180	0x3e2294ba	0.15877047
181	0x3b97a537	0.0046278494
182	0x3dd19173	0.1023282
183	0xbe4b564d	-0.1985714
184	0xbd83df93	-0.06439128
185	0xbd758fff	-0.05995178
186	0x3ca9af12	0.020713363
187	0xbdb0306d	-0.086029865
188	0xbd9fa756	-0.07795589
189	0x3cae6918	0.021290347
190	0x3d643a52	0.05571968
191	0xbdef5574	-0.11686221
192	0x3e167a73	0.14695148
193	0xbe10507d	-0.14093204
194	0xbd828082	-0.06372167
195	0x3d5b601f	0.053558465
196	0xbe43bf99	-0.19116057
197	0x3e6c1bc5	0.23057468
198	0xbe8d0afa	-0.27547437
199	0xbe6ccf76	-0.23126015
200	0x3a3c54a7	0.0007184245
201	0x3d48345e	0.048878066
202	0xbd038c7e	-0.032116406
203	0xbd90ff3a	-0.070799306
204	0x3d758135	0.059937675
205	0x3db88a79	0.090107866
206	0x3d202975	0.039102037
207	0xbb98e1e9	-0.0046656025
208	0xbcd44db0	-0.02591595
209	0x3d888f50	0.0666796
210	0x3d600069	0.05468789
211	0x3d81958b	0.06327351
212	0xbcfe8d4a	-0.031073231
213	0x3da66c6d	0.08126149
214	0x3cc9225c	0.024552517
215	0xbbd26df3	-0.0064217984
216	0xbc02c87a	-0.007982368
217	0xbc191530	-0.00934343
218	0xbc4e8c34	-0.012606669
219	0x3c6d38cb	0.0144788725
220	0x3da854a1	0.08219267
221	0x3c952c83	0.018209701
222	0xbd8af831	-0.0678562
223	0x3d2b24c2	0.0417831
224	0x3d1d7f8d	0.03845172
225	0xbeea0c89	-0.4571269
226	0x3d0737d9	0.033012245
227	0x3f0b306e	0.5437077
228	0xbd836f32	-0.06417693
229	0x3da8abe7	0.08235913
230	0x3d007b72	0.031367727
231	0xbd3f5068	-0.04670754
232	0x3d444929	0.047921333
233	0x3d880bdd	0.06642888
234	0x3d14e7f3	0.036354017
235	0xbd2c2224	-0.042024747
236	0xbcf5f60c	-0.03002455
237	0xbd8fe123	-0.07025363
238	0xbd8de8e8	-0.06929189
239	0x3d947c37	0.072502546
240	0xbcca0bd4	-0.024663843
241	0xbd9bcc9a	-0.07607384
242	0xbd3cd22c	-0.046098873
243	0xbd80d07e	-0.06289767
244	0xbdad5f7a	-0.08465476
245	0x3c6c5c90	0.0144263655
246	0xbc6a57cb	-0.014303158
247	0xbd90e8b3	-0.07075634
248	0x3d827525	0.0637
249	0xbddc24ca	-0.107492045
250	0x3dbc8123	0.092043184
251	0xbd4ce4ef	-0.050023016
252	0x3c430a13	0.011904257
253	0xbdadd274	-0.084874064
254	0x3e87dc5a	0.26535302
255	0x3d9e7648	0.07737404

hiddenLayers.0.bias f4 [100]
0	0x3d877960	0.06614947
1	0x3db1baf6	0.08678238
2	0xbd987760	-0.07444644
3	0xbb224499	-0.0024760126
4	0xbd883a03	-0.0665169
5	0x3d28db61	0.04122484
6	0x3d9fcd48	0.07802826
7	0x3cc499ae	0.023999061
8	0x3d35bf4a	0.04437188
9	0xbb69cc42	-0.0035674726
10	0xbd64c9e8	-0.055856615
11	0x3b661f40	0.0035113841
12	0xbd5fa94a	-0.054604806
13	0xbd5191be	-0.05116438
14	0xbcd19868	-0.025585368
15	0x3cf71360	0.030160606
16	0x3d154a62	0.03644789
17	0xbcec1f91	-0.028823646
18	0xbd891721	-0.066938646
19	0x3db3cd5c	0.087794036
20	0x3d4b69b8	0.049661368
21	0x3ceda1a8	0.029007748
22	0x3da0b196	0.07846372
23	0xbd9b90cb	-0.075959764
24	0x3d148af8	0.036265343
25	0xbcf7a451	-0.03022972
26	0x3c207fb6	0.009796074
27	0xbd289d92	-0.041165896
28	0xbd8dbda2	-0.06920935
29	0x3d4644f7	0.048405614
30	0xbd85001f	-0.06494164
31	0xbc94717c	-0.01812052
32	0x3c91acd2	0.017782602
33	0x3c1544fc	0.009110685
34	0xbd967541	-0.07346583
35	0x3c865389	0.016397255
36	0xbdb2c334	-0.08728638
37	0xbdaf5fb8	-0.08563179
38	0xbd86ad2d	-0.065759994
39	0xbd818dda	-0.06325884
40	0xbbc8f721	-0.0061329757
41	0xbc136c2e	-0.00899796
42	0x3d1364b1	0.0359847
43	0xbdb517b5	-0.088424124
44	0x3d046498	0.032322496
45	0xbd920e21	-0.07131601
46	0xbdaed1bd	-0.08536098
47	0xbc91d2ed	-0.017800773
48	0xbdb1acea	-0.08675559
49	0xbcfb7f04	-0.030700214
50	0x3d6cec5b	0.057842594
51	0xbd9cf749	-0.076643534
52	0xbc2ca7cf	-0.010538056
53	0xbb05e204	-0.0020428905
54	0xbc8ed46a	-0.017435271
55	0x3b7be25d	0.0038434484
56	0x3d0731d3	0.0330065
57	0xbd6751ae	-0.05647438
58	0xbc815701	-0.015788557
59	0xbbe8f9f0	-0.007109873
60	0xbd1c9c81	-0.03823519
61	0x3d5cfea6	0.05395379
62	0xbd66fe90	-0.056395113
63	0x3d7577a9	0.05992857
64	0x3c8c921c	0.017159514
65	0x3c48c4b1	0.012253926
66	0x3d5af6cf	0.05345803
67	0x3d4d7b24	0.050166264
68	0xbbdccb6f	-0.0067381184
69	0xbdb6a56c	-0.089182705
70	0x3d6432a5	0.05571236
71	0x3d5e3287	0.054247405
72	0x3cfe5939	0.031048404
73	0x3cb163ef	0.021654097
74	0x3d86314b	0.06552371
75	0xbd45241e	-0.048130147
76	0xbcfb440e	-0.0306721
77	0x3d24f7da	0.040275432
78	0xbda120b9	-0.078675695
79	0xbc82d336	-0.015969854
80	0xbd66a511	-0.056309763
81	0xbd2d5569	-0.04231778
82	0x3d82f48c	0.063943
83	0xbda2f0ea	-0.07956107
84	0x3cdda430	0.02705583
85	0x3d8558f2	0.065111056
86	0xbdc45179	-0.09585852
87	0x3d8ab64a	0.0677305
88	0xbda04143	-0.07824948
89	0x3b2b9d11	0.0026186148
90	0x3c8e6f74	0.01738713
91	0x3d56c19d	0.052430738
92	0x3a0e94b1	0.0005439027
93	0x3dbb5239	0.09146542
94	0xbb7bab65	-0.003840172
95	0x3b810ff4	0.0039386693
96	0xbbb33b60	-0.0054697245
97	0xbc52174d	-0.012822938
98	0x3c9a9f40	0.018874764
99	0xbc464c37	-0.012103132

hiddenLayers.1.weight f4 [50, 100]
0	0x3dac43ec	0.084113926
1	0xbd975962	-0.07390095
2	0xbeb5cc9f	-0.35507676
3	0xb8ef085e	-0.000113979666
4	0x3dba7eb1	0.09106196
5	0xbe2318e2	-0.15927461
6	0x3d7eaacf	0.062174615
7	0xbdd66596	-0.10468595
8	0x3c688118	0.014190935
9	0xbd82484a	-0.06361444
10	0xbdc25734	-0.09489289
11	0xbcce0de0	-0.0251531
12	0xbd4a28e7	-0.049355414
13	0x3d5894b6	0.052876197
14	0x3a48a88f	0.0007654512
15	0x3de240f3	0.11047544
16	0x3df299c9	0.118457384
17	0x3dda6e1c	0.10665533
18	0xbd92f540	-0.07175684
19	0xbd6e3d2e	-0.058163814
20	0xbe378e50	-0.17925382
21	0xbd9a1572	-0.075236216
22	0xbe885fb2	-0.2663551
23	0x3db00271	0.08594216
24	0xbd8bbb13	-0.06822791
25	0x3e3cfc1a	0.18455544
26	0xbe137a83	-0.14402203
27	0x3dd256fb	0.102704965
28	0x3d1dcfa1	0.03852809
29	0xbe0b17e0	-0.13583326
30	0x3d6a4db7	0.05720302
31	0xb9491600	-0.0001917705
32	0x3d851083	0.0649729
33	0xbd0ae6a0	-0.033911347
34	0xbe732945	-0.23746212
35	0xbc884fa0	-0.01663953
36	0xbdf7b4a3	-0.120950006
37	0x3eabbb95	0.3354155
38	0xbceaac00	-0.02864647
39	0x3d49c6ce	0.04926186
40	0xbe03a664	-0.12856442
41	0xbce195e8	-0.027537301
42	0xbd114b6c	-0.03547232
43	0xbc2592d4	-0.010105807
44	0x3e0fb508	0.14033902
45	0xbda319ab	-0.0796388
46	0xbeb49f5d	-0.35277835
47	0xbd3b293a	-0.045693614
48	0x3d6bc657	0.0575622
49	0x3b920f30	0.004457377
50	0xbdc1531b	-0.09439679
51	0xbd8d58b2	-0.06901683
52	0x3cf1cbe7	0.029516174
53	0x3d86fa6d	0.06590734
54	0x3d3e46c2	0.0464542
55	0xbe42b5d5	-0.19014676
56	0xbdb6ada4	-0.08919838
57	0x3d5e08e2	0.05420769
58	0xbeabe5b9	-0.33573702
59	0x3ea79837	0.32733318
60	0xbe273092	-0.16327122
61	0xbcdb36c8	-0.02675952
62	0xbddb44ce	-0.10706483
63	0x3da12c09	0.07869727
64	0x3d0b55ee	0.034017496
65	0xbe20fff4	-0.15722638
66	0xbe57a61f	-0.21059464
67	0xbd7f2518	-0.062291235
68	0xbdb2b947	-0.08726745
69	0x3c83e014	0.01609806
70	0xbe80f765	-0.25188747
71	0x3d059cad	0.03262012
72	0xbdaf9335	-0.085729994
73	0x3c6f7c75	0.014617075
74	0xbd1222f6	-0.035677873
75	0xbdc2a78f	-0.095046155
76	0x3e3d3bc5	0.18479832
77	0x3d8a6199	0.067568965
78	0x384b8de4	4.8531117e-05
79	0xbeea1747	-0.45720884
80	0xbc43c716	-0.011949321
81	0x3cebcbac	0.028783642
82	0x3daa3c86	0.08312325
83	0x3bbfe150	0.0058557168
84	0x3d9f7039	0.07785077
85	0x3cbee6f8	0.023303494
86	0xbcac3c20	-0.021024764
87	0x3d97b0c8	0.07406765
88	0xbbf435d0	-0.007452704
89	0x3d94d2c1	0.072667606
90	0xbded5d75	-0.11590091
91	0xbdb75997	-0.08952635
92	0xbd46a5aa	-0.048497833
93	0xbe3ed5fd	-0.18636318
94	0xbe9e7365	-0.30947414
95	0x3c9256bc	0.017863624
96	0x3cef018c	0.029175542
97	0xbc9695b6	-0.018381935
98	0xbe0b4e13	-0.13604002
99	0xbdb08fc1	-0.08621169
100	0xbd8229e5	-0.06355647
101	0xbc94e6c0	-0.018176436
102	0xbdd64645	-0.104626216
103	0x3d07cacb	0.033152383
104	0x3d6e4e42	0.0581801
105	0x3cd4cf11	0.025977643
106	0xbe0332aa	-0.12812296
107	0x3df2328f	0.118260495
108	0xbdbd9cde	-0.09258436
109	0x3d954be7	0.07289868
110	0x3e2fa2a0	0.1715188
111	0x3a8dc8c0	0.0010817274
112	0xbc5888a4	-0.013216171
113	0xbc9c710a	-0.01909687
114	0x3dae2ba3	0.08504417
115	0xbe4b7bf1	-0.19871499
116	0x3e08aeff	0.13348006
117	0xbd51c62a	-0.051214375
118	0xbe0011ff	-0.12506865
119	0xbd1fd3e1	-0.039020423
120	0x3d26f5cb	0.04076175
121	0xbd292b3d	-0.041301
122	0x3d171830	0.0368883
123	0x3d27efba	0.041000105
124	0xbe445069	-0.19171299
125	0xbea76017	-0.32690498
126	0xbdb62569	-0.08893854
127	0x3d572648	0.052526742
128	0x3ce86ebc	0.028373115
129	0x3de219e0	0.110400915
130	0x3d1a8468	0.03772393
131	0x3b4da572	0.003137913
132	0x3db1fa0f	0.08690273
133	0xbde7ce92	-0.11318697
134	0x3d98bfec	0.07458481
135	0xbd71b843	-0.059013616
136	0x3dfeb625	0.12437085
137	0xbe84d5cb	-0.2594436
138	0xbb3e4ca0	-0.0029037371
139	0x3dc2a6d7	0.095044784
140	0xbdc41886	-0.0957499
141	0xbd022acb	-0.03177909
142	0x3d7b1f66	0.06130924
143	0xbbfc4cf0	-0.0076996014
144	0xbd935266	-0.07193451
145	0xbd259ae4	-0.04043092
146	0xbd0df41b	-0.034656625
147	0x3db4552a	0.08805306
148	0x3e033ec0	0.12816906
149	0xbd9a1176	-0.07522862
150	0x3ca050ae	0.019569721
151	0xbdb5c457	-0.088753395
152	0x3c4d9306	0.01254726
153	0x3da5f9c6	0.08104281
154	0xbd428894	-0.047493532
155	0x3ddaba54	0.106800705
156	0xbd3cc1e2	-0.04608334
157	0x3d55b1aa	0.052171387
158	0x3cfbd25e	0.03073996
159	0x3d09f536	0.033681117
160	0xbd421561	-0.04738367
161	0x3d747142	0.059678324
162	0xbe757f2b	-0.23974292
163	0xbc7a41e9	-0.015274503
164	0xbcdf0635	-0.02722464
165	0x3cd2fe50	0.025756031
166	0xbed513d6	-0.41616696
167	0x3cd2a190	0.025711805
168	0xbe9eb4d2	-0.3099733
169	0xbd8ea40b	-0.069648825
170	0xbcea2a26	-0.028584551
171	0xbe0c643c	-0.13710111
172	0xbd6d309b	-0.057907682
173	0x3d4a0769	0.049323473
174	0x3cdfae25	0.027304718
175	0x3c8dfded	0.017332995
176	0xbe00f48e	-0.1259329
177	0x3d6d7dae	0.057981186
178	0xbd831f7d	-0.0640249
179	0x3ce3be42	0.027800683
180	0xbe01f03b	-0.12689297
181	0xbca719e5	-0.02039809
182	0xbdf82b17	-0.12117594
183	0x3bf9c5ed	0.0076224715
184	0x3dc8fc71	0.098137744
185	0xbd46b536	-0.04851266
186	0xbdaaa857	-0.083328895
187	0x3ac66e8e	0.0015139149
188	0xbc91b5f9	-0.017786967
189	0xbe95a76a	-0.2922929
190	0x3dfe44d7	0.12415474
191	0xbd3f471d	-0.04669868
192	0x3d8466f7	0.064649515
193	0xbe123839	-0.1427926
194	0xbd94ca9b	-0.072652064
195	0xbce3a6cb	-0.027789494
196	0xbc5f1170	-0.013614997
197	0xbe46e83c	-0.19424528
198	0xbc4df402	-0.012570383
199	0x3d2a36de	0.04155623
200	0x3daa0723	0.083021425
201	0xbb7a19f5	-0.0038162444
202	0xbdf005df	-0.1171987
203	0xbea126dd	-0.31474963
204	0xbcadbbe9	-0.021207767
205	0x3daad6ec	0.08341774
206	0xbd8f3301	-0.0699215
207	0xbdb88d2a	-0.090113
208	0x3caf1ec6	0.021376979
209	0x3d7714d2	0.06032259
210	0x3e0417f5	0.12899764
211	0xbd6f277d	-0.05838727
212	0xbd3be196	-0.045869432
213	0xbe151e8f	-0.14562438
214	0x3d165bc5	0.036708612
215	0x3e0c66da	0.1371111
216	0x3e33625c	0.1751799
217	0x3e78dbd2	0.24302605
218	0xbd65394d	-0.05596285
219	0x3da67335	0.08127443
220	0x3e42f568	0.19038928
221	0xbcc4e385	-0.024034271
222	0xbe5087ae	-0.20364258
223	0x3dd69fcc	0.104796976
224	0x3dab5a91	0.083668835
225	0x3d812cae	0.0630735
226	0xbd8dbd27	-0.069208436
227	0xbc1226b7	-0.008920363
228	0xbd23a202	-0.039949425
229	0x3d40b138	0.04704401
230	0xbf280e75	-0.6564706
231	0xbc09046c	-0.008362871
232	0x3d3d64ee	0.046238832
233	0x3c985952	0.018597279
234	0x3e094bc2	0.13407806
235	0x3db6bdef	0.08922946
236	0x3d6150da	0.055008747
237	0xbe87fa4c	-0.2655815
238	0x3d87eb4b	0.066366754
239	0xbd9a7945	-0.075426616
240	0xbe09cd63	-0.13457255
241	0xbdaba6db	-0.083814345
242	0x3cfc4c6e	0.030798163
243	0xbdb7dcb1	-0.089776404
244	0xbbd01983	-0.0063506975
245	0xbd67edd1	-0.056623284
246	0xbd9a32af	-0.075291984
247	0xbd94c5e0	-0.07264304
248	0xbdb2fad4	-0.08739248
249	0x3db41c2f	0.08794438
250	0xba21185c	-0.00061452924
251	0x3d917951	0.071032174
252	0xbd50822c	-0.05090539
253	0xbcde91df	-0.027169166
254	0xbc62fba1	-0.013853938
255	0x3e21bdbd	0.15795036

hiddenLayers.1.bias f4 [50]
0	0xbd88dd6a	-0.066828564
1	0x3d789543	0.060689222
2	0xbc618f4b	-0.013767074
3	0xbcaca55c	-0.021074943
4	0x3cc04af5	0.023473242
5	0x3de5d547	0.1122232
6	0x3c57c899	0.013170385
7	0x3d422bd1	0.047405068
8	0xbd374d4e	-0.044751458
9	0xbcc64197	-0.024201198
10	0xbd8df6e6	-0.06931858
11	0xbdc2058f	-0.094737165
12	0xbd335a04	-0.043787017
13	0xbc099b91	-0.008398906
14	0x3d9ec777	0.07752889
15	0x3d800c4f	0.06252348
16	0x3d3c31ce	0.045945935
17	0xbd439b3c	-0.047755465
18	0xbc55b0be	-0.013042627
19	0xbdd5cdac	-0.104396194
20	0xbe112fad	-0.14178343
21	0xbc9ecc2f	-0.019384472
22	0x3dd77cb9	0.10521836
23	0x3c6a799d	0.014311221
24	0x3d80d9be	0.06291531
25	0x399214de	0.00027862837
26	0x3d797a28	0.060907513
27	0xbc712048	-0.014717169
28	0x3d288aed	0.041148115
29	0xbe09f9d2	-0.13474205
30	0xbd000fd3	-0.03126509
31	0x3c60e6a0	0.01372686
32	0xbd3ef717	-0.046622362
33	0x3dd8299c	0.10554811
34	0x38132669	3.5083303e-05
35	0x3da128de	0.07869123
36	0x3d4268c6	0.0474632
37	0x3d16b4c6	0.036793493
38	0x3da3ac1d	0.079918124
39	0xbd8d59f2	-0.06901921
40	0xbd35c6f0	-0.044379175
41	0xbdfee1bb	-0.124453984
42	0xbda6ceac	-0.08144888
43	0xbe1b31df	-0.15155743
44	0x3da13bc1	0.07872725
45	0x3d8df7d5	0.06932036
46	0x3db7b108	0.08969313
47	0xbdc23dce	-0.094844446
48	0xbd1f5da0	-0.038907647
49	0x3c8f77af	0.017513124

outputLayer.weight f4 [3, 50]
0	0x3d319775	0.04335733
1	0xbe15cd8a	-0.14629188
2	0x3da89225	0.08231
3	0xbb03232a	-0.0020009973
4	0xbccd05d2	-0.02502719
5	0x3cd6eed9	0.026236938
6	0x3e13104b	0.14361684
7	0xbb473d70	-0.003040161
8	0xbe51d278	-0.20490444
9	0x3a0b5061	0.00053144066
10	0xbdbd5ec5	-0.092465915
11	0xbbe58b3e	-0.0070051244
12	0xbef79fe9	-0.4836419
13	0x3cb64896	0.022251409
14	0x3dafe3dc	0.085883826
15	0x3e0d3ca4	0.13792664
16	0xbcc5fa0b	-0.024167081
17	0x3cbc8fbc	0.023017757
18	0xbcd45e36	-0.02592383
19	0x3b26fc4b	0.0025479968
20	0x3c8e586d	0.01737615
21	0xbc9a6aec	-0.018849812
22	0x3cee5981	0.029095413
23	0xbe0f342e	-0.13984749
24	0x3be4f85e	0.0069876155
25	0xbd193210	-0.03740126
26	0xbd2d4913	-0.042306017
27	0xbcaf8788	-0.021426931
28	0x3d0d663f	0.034521338
29	0xbf046608	-0.5171819
30	0xbe8c54ff	-0.27408597
31	0xbcd37cf1	-0.025816413
32	0xbd18a188	-0.037263423
33	0x3d91ba60	0.07115626
34	0x3c5ea8d8	0.01359006
35	0xbd723e41	-0.0591414
36	0xbdd0c697	-0.10194128
37	0x3de7d96d	0.113207676
38	0xbe46cd70	-0.19414306
39	0xbd50eb98	-0.05100593
40	0x3d3caa67	0.046060946
41	0x3a764d42	0.00093956676
42	0xbc2805e0	-0.010255307
43	0xbdc10c8a	-0.0942622
44	0x3de7868a	0.11304958
45	0x3d865b36	0.06560366
46	0xbbd68cd3	-0.0065475493
47	0x3dc16d45	0.0944467
48	0x3de3bc4c	0.11119899
49	0xbd2c48fe	-0.0420618
50	0xbc2e3cc0	-0.010634601
51	0xbcc25142	-0.023720387
52	0x3e0dd112	0.13849285
53	0x3dcc7e32	0.09985007
54	0x3d30b90a	0.043145217
55	0x3dd1f5ec	0.10251984
56	0xbcc82047	-0.024429454
57	0x3df2f7df	0.11863684
58	0xbe3b394b	-0.18283574
59	0xbbea1d36	-0.0071445955
60	0x3e02845d	0.12745805
61	0xbb230061	-0.0024872052
62	0xbe28129b	-0.16413347
63	0x3b7f3b30	0.003894519
64	0x3d930831	0.07179297
65	0x3da7c6ee	0.0819224
66	0x3c789f4a	0.015174696
67	0x3c6628d4	0.01404782
68	0xbcc09314	-0.023507632
69	0x3b5e0825	0.0033879366
70	0xbe0ccaf9	-0.13749303
71	0xbd2e5125	-0.042557854
72	0xbca5cacb	-0.0202383
73	0xbdc92133	-0.098207854
74	0x3c15a68d	0.009133947
75	0x3c03a28a	0.008034358
76	0x3c858e4f	0.01630321
77	0xbd1c1199	-0.03810272
78	0xbd96d149	-0.07364137
79	0xbe6e7f3d	-0.23290725
80	0x3c4b134c	0.012394737
81	0xbcb7aa9a	-0.022420216
82	0x3d585ddb	0.052823883
83	0x3cef6f5e	0.029227909
84	0xbcf83b0d	-0.030301595
85	0x3d9c0741	0.07618571
86	0x3cfeea9a	0.031117726
87	0x3ce276e1	0.027644577
88	0xbdd41147	-0.10354858
89	0xbd4ed21e	-0.050493352
90	0xbc75f360	-0.015011638
91	0x3d05cc94	0.032665804
92	0x3d007d3d	0.031369437
93	0xbe02f553	-0.12788896
94	0x3dde3422	0.10849787
95	0x3c7cf91b	0.015440251
96	0xbb2894ca	-0.002572345
97	0xbd935a02	-0.07194902
98	0xbb595bb1	-0.0033166225
99	0xbd1dfd3f	-0.038571592
100	0x3ef064a7	0.46951792
101	0x3d56397c	0.052300915
102	0x3e0e1a7c	0.1387729
103	0x3f00d7bd	0.5032919
104	0xbe08efc0	-0.13372707
105	0xbd1b823a	-0.03796599
106	0xbe393c95	-0.18089516
107	0x3dc04b7c	0.093893975
108	0x3dab5d80	0.08367443
109	0xbf0b69bc	-0.5445821
110	0xbd8c5a53	-0.068531655
111	0xbee99b7a	-0.45626432
112	0xbe717478	-0.23579586
113	0x3e42706f	0.18988203
114	0xbde6a89c	-0.112626284
115	0x3d77fdef	0.060544904
116	0xbf03f73c	-0.51549125
117	0xbe885e3a	-0.2663439
118	0xbe979a28	-0.296098
119	0xbee07b01	-0.43843845
120	0xbed97755	-0.42473856
121	0x3eb1f9b2	0.34760815
122	0x3e5013e5	0.20320089
123	0xbdac819a	-0.08423157
124	0xbf2809f6	-0.656402
125	0x3e49e703	0.1971703
126	0x3ead02bc	0.3379115
127	0xbe2695a4	-0.16268021
128	0x3defe591	0.11713708
129	0x3e382785	0.17983826
130	0x3eb3d01e	0.35119718
131	0xbed28701	-0.41118625
132	0x3e1297fc	0.1431579
133	0x3ef58401	0.47952273
134	0xbec35513	-0.38150844
135	0xbdf1cea7	-0.11806994
136	0x3dc1a889	0.09455974
137	0x3e1beb5a	0.15226498
138	0xbe89a25f	-0.26881692
139	0x3e8cc83a	0.2749651
140	0xbe65f054	-0.22454959
141	0x3ee4a739	0.4465883
142	0x3ebd1989	0.36933544
143	0x3e2182b3	0.15772514
144	0xbca09828	-0.019603804
145	0x3da4ce86	0.08047204
146	0xbe8f3647	-0.27971098
147	0xbf0d267b	-0.5513684
148	0xbea3bfbb	-0.31982216
149	0xbef03080	-0.46912003

outputLayer.bias f4 [3]
0	0x3e4a078c	0.19729441
1	0x3dbf6f12	0.09347357
2	0x3d1a223a	0.037630297
