trainedDQNR.pt (torch, 20279 bytes, 4 tensors)

hiddenLayers.0.weight f4 [40, 112]
00000000: 5730 8d3e 1d5d ecbe ecd3 3b3e d8d6 cf3d
00000010: 0f0c 953d 3cd3 62bd d701 9fbd 593d 86bd
00000020: 825c 82bd f61f 283d 81a5 c93c e827 543d
00000030: 6636 3d3d c97a cdbc 1744 e3bc 7657 713d
00000040: bbdf 06bd 78ab 013b 2b61 0dbd 9f25 54bd
00000050: a51a a1bd e8f7 44bc 33d9 b03d 8033 5c3d
00000060: d276 88bd c43b 19be b6c2 193e b6a0 fbbe
00000070: 86e0 c2bc 942a aa3e c75f 10bf 5c57 d6bd
00000080: 69c9 9abe 5533 dc3e 1ac8 55bd 7012 453e
00000090: 169b 8ebe 0d4c 70bd 7e4b 98bd fd94 8a3d
000000a0: 2d7c 413d f227 5bbd 8294 9ebd 96a4 bdbb
000000b0: 7a9d 01be eaf2 1fbe 2335 943d b4c2 823d
000000c0: da3f 0b3d 4569 ee3c 143a d03d b917 b9be
000000d0: 6eea 5d3d 19a4 b83d 169c a43e 711d b43d
000000e0: c61b 67bd 163d 763d decc 6dbd 9f2f a3bd
000000f0: 9a54 033d 4716 f8bd e74d 51be ab5e 78be
00000100: b240 b539 dd4e d23e 4b4f 5bbe 24a1 253e
00000110: 10a1 a2bd 4d6a 923e 6959 23be 2d5a cf3d
00000120: 6b93 5c3e e19b 6d3d 52a2 cc3d fea6 1a3d
00000130: 5118 1c3c e60c a6bd 4194 99bd 8514 993e
00000140: fa6f dfbd 8db5 c63d 5241 3fbd 25f8 afbe
00000150: c499 46be dccf 37be 012f 27be 0894 e6bd
00000160: b8d5 5b3d 958c 753d 721d 83bd e117 293d
00000170: c42a aa3d b4de a23c 2e2d 94bd 9ba2 e4bc
00000180: 9a2c a2bd bceb 38bd ab58 63bd dc83 edbc
00000190: 43bd 953d 80f3 7d3d f9f4 813d 0d96 193d
000001a0: 437b 40bc 8020 d03a 8d8a 57bd b015 8a3d
000001b0: 8f00 a7bd 6b07 36bd c879 513d 8afb 553d
000001c0: 4a9a 8ebe be54 673f 4bf6 00bf 2e27 8dbe
000001d0: 12be 8abd cbc6 c8bd 1b5c bebd 4fb8 6a3d
000001e0: 318a 2abd e887 d13c 6c0f 55bd b192 863d
000001f0: 0a0c 783d 2dcd c1bc eca9 91bd 5e53 463d
00000200: 036e 1e3d d0d6 223d ad86 c03d d1d8 9d3d
00000210: 7025 013d 1891 043c 96f8 863c 674b ba3c
00000220: 4679 b1bd b611 813c 475a 443d 3904 5b3e
00000230: 3127 6b3c ca6f 05be 4f83 a63e a121 083e
00000240: cedd 7abd ae92 af3e 0b55 f73d e462 23be
00000250: ce25 cfbf 7151 9e3d 8892 c7bd d8ae d23c
00000260: cb12 74bd 8ab1 103d a9d2 823d a786 00bd
00000270: 289f eb3d 7b1e 873e 0e62 f0bd 5203 0f3e
00000280: c2ee 39bf 2937 0a3d 9d6b 2e3e 8ab4 dd3d
00000290: cb2a 25be 5a7b b2bd 0955 87be 11be 403c
000002a0: f868 34bc 788d b13c 2bc6 9b3d 4605 ebba
000002b0: 107e ec3b 70d7 0d3e 9642 8abd 6bfd 54bf
000002c0: b32a a3bc 5265 3f3e 5674 fa3e 365b 51bc
000002d0: 8336 403e 732b e6be dc37 af3d df43 edbd
000002e0: 6d29 c3bf 8379 f8bc 2927 1fbc ce2a 71bd
000002f0: a3f0 fcbc f272 b03d e058 dbbb 678b f8bd
00000300: ae5f 7ebd d427 f3be e692 9d3d d86a 5cbb
00000310: 4d10 6c3e 9ccf 863d eaf1 31bc be20 833d
00000320: 6930 fbbc 283c babd e7e6 5cbd 7f67 a93d
00000330: c81d 70bd 05ca 95bd 55d7 a83d 6bea b3bd
00000340: a67d 323d 2db8 6ebd 85f6 093c e868 58bc
00000350: e950 ab3d c245 8abd a802 acbc 70c5 043d
00000360: e5fb acbd 05c5 873d de17 843d 9412 4cbd
00000370: e8db 9abc df17 b13d 5c00 8d3d 7a50 2b3d
00000380: 1d8f a33d ba51 cfbe 649f 6a3f 7542 97bf
00000390: 5147 983d c077 8cbd 28df bd3c a5ce b2bc
000003a0: a35d 033d ed74 af3d 5e60 92bd eefb a1bd
000003b0: ac07 d5bc b41f 483c e73f 9dbd 00f6 2dbb
000003c0: 8c29 5f3c e1a0 0f3d e7ee b7bd 442f 0ebc
000003d0: e90b 653d 6e17 773d 7590 afbd cd4a 973d
000003e0: 8916 1fbd 9370 93bc f266 e1bd 8858 f8be
000003f0: 11d3 2fbd 0f4b 5f3e 6cc7 76be c010 bbbd
0.27575943 -0.4616479 0.1834256 0.101484 0.072776906 -0.05537723 -0.07764023 -0.0655467
-0.06365301 0.041046105 0.024615051 0.05179587 0.046194457 -0.025082963 -0.027742429 0.0589213
-0.03292821 0.0019786041 -0.034516495 -0.05179369 -0.0786641 -0.012021996 0.086351775 0.05376005
-0.06663288 -0.14964205 0.15015683 -0.4914605 -0.023788702 0.3323561 -0.56396145 -0.10465881
-0.3023179 0.43007913 -0.052192785 0.19245315 -0.27852696 -0.058666278 -0.07436274 0.067666985
0.047237564 -0.05350489 -0.07743169 -0.0057874424 -0.12657729 -0.15620008 0.072366975 0.06384793
0.03399644 0.02910293 0.101673275 -0.3615091 0.054178648 0.09015674 0.32150334 0.08794678
-0.05642297 0.06011685 -0.058056705 -0.079680674 0.032063104 -0.12113624 -0.20439874 -0.24254863
0.00034571212 0.41075793 -0.21416967 0.16174752 -0.079408765 0.28596726 -0.15952076 0.101246215
0.2154061 0.058009986 0.09991898 0.037756912 0.009527282 -0.08107929 -0.0749898 0.29898468
-0.1091003 0.09702597 -0.046693154 -0.34369007 -0.19394594 -0.17950386 -0.16326524 -0.112587035
0.053670615 0.059948523 -0.064021006 0.04128254 0.08308938 0.019881584 -0.0723518 -0.027909568
-0.07918663 -0.04514669 -0.055504482 -0.02899354 0.073114894 0.061999798 0.06345553 0.037496615
-0.011748138 0.0015878826 -0.052622367 0.06742418 -0.081544034 -0.044440668 0.05114153 0.05224184
-0.27852088 0.9036368 -0.50375813 -0.27568954 -0.06774534 -0.09803542 -0.092949115 0.057304677
-0.041635696 0.0255775 -0.05201666 0.06570948 0.060558356 -0.023657406 -0.07112488 0.04841935
0.038679134 0.039755642 0.09400687 0.0770737 0.031529844 0.008091234 0.016475957 0.022741033
-0.08665709 0.015755516 0.047937658 0.2138833 0.014352606 -0.13030925 0.32522056 0.13294078
-0.061246686 0.34291595 0.120767675 -0.15955693 -1.6183412 0.077303775 -0.097447455 0.025718138
-0.059588235 0.035325564 0.063878365 -0.031378414 0.11504966 0.26390442 -0.117374524 0.1396611
-0.7262994 0.03374401 0.17033239 0.10825451 -0.16129605 -0.08714934 -0.26432064 0.011764065
-0.011011355 0.021673903 0.07606157 -0.0017930649 0.0072171763 0.13851714 -0.067509815 -0.83199185
-0.019917822 0.18690994 0.48916882 -0.012778094 0.18770795 -0.44955024 0.08555576 -0.11585211
-1.5247017 -0.030331379 -0.009713926 -0.058878712 -0.030876463 0.08615674 -0.0066939443 -0.12135964
-0.062102966 -0.47491324 0.07694034 -0.003363302 0.23053093 0.06582567 -0.010860899 0.064027295
-0.030662732 -0.09093505 -0.053931143 0.082716934 -0.05862215 -0.07313923 0.08244196 -0.08784946
0.04357686 -0.058281112 0.008420591 -0.013208605 0.08365042 -0.067515865 -0.02099736 0.032414854
-0.084464826 0.06629375 0.06449865 -0.049822405 -0.018903688 0.08647131 0.06884834 0.041824795
0.07986281 -0.4049204 0.9164946 -1.1817156 0.074354775 -0.06858778 0.023177698 -0.021827051
0.03207172 0.08567224 -0.07147287 -0.0790938 -0.026004635 0.01221459 -0.07678204 -0.0026544333
0.013620745 0.035065535 -0.08981114 -0.008678261 0.05591956 0.06032508 -0.08572475 0.07387314
-0.03883985 -0.017998016 -0.110059634 -0.48505044 -0.042925898 0.21805976 -0.24099511 -0.09134054

hiddenLayers.0.bias f4 [40]
00000000: eae4 a23c 9c6e 9b3d b433 433d 3367 2f3d
00000010: 6722 5cbb 1e1b 1e3d 64ab 90bc 2b71 10bc
00000020: 3660 543c 269d 4dbd 7f5b a3bc c740 81bd
00000030: be7f 943d 2490 983d 582d a63d f1b7 94bd
00000040: 8509 64bd 6e5c bd3c 8673 3fbd 95a3 8e3d
00000050: f0b1 423d 5557 d0bc 80a9 913d e557 b0bc
00000060: 7dcb e13c b6d2 8a3d 811e 323d 9628 fcbc
00000070: 7c9d c6bd c8d8 643c 2ed9 01bc 8858 d3bd
00000080: 39f7 c6bd f46a 4abd f187 353d 8b5b 05bd
00000090: 9349 6d3d 7dac ac3d dff1 91bd 0e1c 32bd
0.019884545 0.075894564 0.04765673 0.042823028 -0.0033589841 0.03860008 -0.01765985 -0.008816044
0.012962392 -0.050198697 -0.01994109 -0.063111834 0.072509274 0.07449368 0.081141174 -0.072616465
-0.05567314 0.023115363 -0.04674103 0.069647945 0.047532976 -0.025432268 0.07112408 -0.021526286
0.027562851 0.06778471 0.043486122 -0.030781072 -0.096980065 0.0139677 -0.007925315 -0.1031962
-0.09715123 -0.049418405 0.044319097 -0.032558005 0.057931494 0.08431337 -0.071262114 -0.043483786

outputLayer.weight f4 [3, 40]
00000000: ac5f 2f3b 9d62 93bb 620e 7dbb fb41 d3bd
00000010: 7662 69bc 85da 92bc 2b60 96b9 7569 40bb
00000020: 97ee 72bd 5af2 82bc 4e0b 1d3b b420 e33d
00000030: 057b aabc 21e4 363c 3515 e83c 7888 47bb
00000040: f27d b8bb a089 b5bb fdc4 54bc 11d4 cb3c
00000050: bd47 9f3a 41c2 d03d 8730 833d c4b0 bebb
00000060: 28a2 9bbd 4e75 493c a239 d53c 7f86 cebc
00000070: 457b 10bc c022 d8bd c008 913d 7603 31bd
00000080: 43ea 84bc 8284 15bd 3f5f 9bbc 2bed db3d
00000090: 1460 683d a552 5fbc 977a 673c 3946 50bc
000000a0: a9c5 223a 1d8f 0abc c555 3b3d e2f5 c33d
000000b0: f2a4 4abd 99e1 833c 73be 423c 7951 9f3c
000000c0: aad8 a53d fcac b239 75e5 ce38 2101 0fbe
000000d0: f7ef 24bd 4852 cbba 450e 053d 9cfd 5a3c
000000e0: cf47 81ba 7da1 0abb 7511 503c 3c56 4c3d
000000f0: cdc6 9bbb 03bb 043e 9804 ce3d 7e81 213b
00000100: 5992 743c 3875 55bb 3f44 86bd 489e 97bc
00000110: 17a4 423a 9793 133d c87a 9ebc 10b3 063d
00000120: b8ee 913c 14c8 bfbd eec5 a4b9 d57e a33c
00000130: a281 96bb e634 813b 2b76 b63b 3d3c 20bc
00000140: cdbb d2be bc67 173f 4aac ee3e 9838 db3c
00000150: 147f c5bd 35cc 573e 02ae 0fbf dc7b 023f
00000160: 21e0 113e 0866 8a3d 94a7 ac3e 4bf9 b73d
00000170: c22a f03d 5e1c 823e c269 82bc fcea f13e
00000180: 0beb 70be b5b6 b83e 7d48 a63e 561b d6bd
00000190: 301d df3e bd51 2d3d 393b b7bd 7689 bcbe
000001a0: 0212 2f3c 144c ba3e 785a 503d 64fe b1bd
000001b0: b5cd e43e 6c1c abbc 869d d4bd cde7 85bd
000001c0: e9a7 1bbe 6ce5 623d e4e6 12bf b7ee cbbd
000001d0: 4e32 a23d 0480 e13e 0481 efbe badf 103f
0.0026759906 -0.0044978396 -0.003861331 -0.10315319 -0.014244666 -0.017926464 -0.0002868188 -0.0029359732
-0.05930957 -0.015984703 0.0023963037 0.11090222 -0.020810613 0.011162789 0.028330425 -0.0030446332
-0.005630248 -0.005540088 -0.012986419 0.024881395 0.0012152117 0.10193301 0.0640574 -0.005819412
-0.07599288 0.012296034 0.026028458 -0.025210617 -0.008818452 -0.10553503 0.07081747 -0.04321619
-0.016224986 -0.036503322 -0.018966315 0.107385956 0.056732252 -0.013630544 0.014128349 -0.012712055
0.0006209263 -0.008456972 0.045736093 0.09568383 -0.04947371 0.016098784 0.011886227 0.019448029
0.08097966 0.0003407969 9.865585e-05 -0.13965274 -0.04026791 -0.0015512193 0.03248431 0.013366129
-0.000986332 -0.0021153383 0.012699475 0.049886927 -0.0047539235 0.12961964 0.1005947 0.0024643834
0.01492747 -0.0032571089 -0.06555986 -0.018508092 0.0007424964 0.036029425 -0.019345656 0.03288561
0.017814025 -0.09364334 -0.00031427987 0.01995794 -0.00459309 0.0039430736 0.005568286 -0.009779987
-0.41158906 0.5914266 0.4661582 0.026760384 -0.09643379 0.21073993 -0.5612489 0.50970244
0.14245655 0.06757742 0.33721602 0.08983096 0.117269054 0.25412267 -0.01591957 0.4724959
-0.23527162 0.36076894 0.3247718 -0.10454433 0.43576956 0.04231428 -0.08946843 -0.36823624
0.010685446 0.36386168 0.050867528 -0.08691099 0.44688192 -0.020887576 -0.10381608 -0.06538353
-0.15200771 0.055394575 -0.5738356 -0.099576406 0.07919751 0.4404298 -0.4677812 0.5659138

outputLayer.bias f4 [3]
00000000: 1a58 9139 3b1f 02bd c893 dbbd
0.00027722196 -0.031768065 -0.107215464
