DQN/trainedDQN.pt (torch, 221999 bytes, 6 tensors)

hiddenLayers.0.weight f4 [256, 112]
0	0x3f1340bf	0.5752067
1	0xbfb048b2	-1.3772185
2	0x3dcc145f	0.09964823
3	0x3e399aa6	0.181254
4	0xbb5a1f1e	-0.0033282707
5	0xbd270045	-0.04077174
6	0x3d8cd78f	0.06877052
7	0x3d1ab495	0.037769873
8	0xbdcb652a	-0.09931405
9	0x3da3c459	0.07996435
10	0xbddb90af	-0.107209556
11	0x3d33617a	0.043794133
12	0x3c783f18	0.0151517615
13	0x3d045c50	0.0323146
14	0x3cc9e6d5	0.024646202
15	0x3c942ce4	0.018087812
16	0x3d5b5b52	0.053553887
17	0x3b05b42b	0.0020401578
18	0x3c8d90b8	0.017280921
19	0x3d0b90b9	0.034073565
20	0xbdda43fa	-0.10657497
21	0x3cec7cb8	0.028868064
22	0xbc273df1	-0.010207639
23	0xbca8e061	-0.020614805
24	0x3cfc111c	0.030769877
25	0x3ef87fff	0.48535153
26	0xbe31dea2	-0.17370084
27	0xbeee2545	-0.4651281
28	0xbe2adcee	-0.1668584
29	0xbbbc4e21	-0.0057466184
30	0x3d5dff66	0.054198645
31	0xbefd5857	-0.4948146
32	0xbde8c236	-0.11365168
33	0xbf43048e	-0.76178825
34	0x3d10f8ac	0.035393402
35	0x3f674aea	0.90348685
36	0xbef18305	-0.47170272
37	0x3b2b0344	0.0026094476
38	0x3cd0c4ab	0.025484404
39	0xbd9b690c	-0.075883955
40	0xbcfae40c	-0.03062632
41	0xbca106b3	-0.019656515
42	0xbd85112c	-0.06497416
43	0x3e46865d	0.19387193
44	0x3e48bbc6	0.1960288
45	0x3f1769c4	0.5914576
46	0xbeb0701e	-0.3446054
47	0xbe7e7f4c	-0.24853247
48	0x3f2aade0	0.6667156
49	0xbf0cd793	-0.5501644
50	0xbd286905	-0.04111578
51	0x3ea433b3	0.32070693
52	0x3e839a8a	0.2570384
53	0xbe6c27c6	-0.23062047
54	0x3ff36c7f	1.9017485
55	0xbdde2c0d	-0.10848246
56	0x3c5710f3	0.0131266
57	0x3cf22158	0.029556915
58	0xbdd67cd0	-0.10473025
59	0xbd5a5f03	-0.053313266
60	0x3d1cd972	0.03829331
61	0x3eea3e0a	0.45750457
62	0xbf51e5b3	-0.8199112
63	0xbe8515d4	-0.25993216
64	0x3c1b5c06	0.009482389
65	0x3f0feb25	0.5621818
66	0xbf0213a9	-0.5081125
67	0xbe30df48	-0.17272675
68	0xbe0fb999	-0.14035644
69	0xbf4dce4a	-0.803929
70	0x3d3712a7	0.044695523
71	0xbfac5448	-1.3463221
72	0xbd4c9a82	-0.049952038
73	0xbc34773d	-0.011014757
74	0xbd82ebe0	-0.06392646
75	0x3c803a54	0.015652813
76	0xbd110cf5	-0.035412747
77	0x3d322194	0.043489054
78	0x3cc7155c	0.024302177
79	0x3e9c1bca	0.3048995
80	0x3f6cb9cd	0.9247101
81	0xbfa00788	-1.2502298
82	0xbe995efc	-0.2995528
83	0x3ed75332	0.4205566
84	0xbf98b0c4	-1.1928945
85	0xbebbfc11	-0.3671575
86	0xbfa2b726	-1.2712142
87	0x3ef69d3e	0.4816684
88	0x3d37596c	0.044763014
89	0xbd701723	-0.058615815
90	0x3b1d6c20	0.0024020746
91	0x3d477654	0.04869683
92	0x3b9124ac	0.0044294205
93	0x3cfc0054	0.030761875
94	0xbcedd5a6	-0.02903254
95	0xbd852a12	-0.06502165
96	0xbad95d80	-0.0016583651
97	0xbd10fb5c	-0.035395965
98	0xbde4bf7d	-0.11169336
99	0xbd685e4e	-0.05673056
100	0xbd8a6c02	-0.06758882
101	0x3d029749	0.031882558
102	0xbc674838	-0.014116339
103	0xbd7f7a21	-0.06237233
104	0xbde7866a	-0.11304934
105	0x3daaa4dd	0.083322264
106	0xbdb5330a	-0.088476256
107	0xbba82b14	-0.0051320884
108	0x3d506a5e	0.05088269
109	0xbd813281	-0.06308461
110	0xbcb1983f	-0.021679042
111	0xbc8098cc	-0.01569786
112	0x3db60d42	0.088892475
113	0x3dc0c6f7	0.094129495
114	0x3d8a60d7	0.06756752
115	0x3daf289b	0.08552667
116	0xbd9d0c31	-0.07668341
117	0x3d01a22e	0.031648807
118	0x3b84daf0	0.0040544197
119	0xbd88ce5c	-0.06679985
120	0x3c6e9eeb	0.014564256
121	0x3d82fef5	0.063962854
122	0xbd165c1c	-0.036708936
123	0x3d9ffa7a	0.078114465
124	0x3dab9d87	0.08379655
125	0x3db44fae	0.0880426
126	0xbcba8e9e	-0.022773083
127	0xbd719fe2	-0.058990367
128	0xbd065c0d	-0.03280263
129	0x3d0a0ace	0.03370171
130	0x3cdf9db0	0.027296871
131	0x3d13adf3	0.036054563
132	0xbce89ad6	-0.028394144
133	0xbd98f09e	-0.07467769
134	0xbd3c5812	-0.045982428
135	0xbd573aae	-0.052546196
136	0x3d68992e	0.05678671
137	0xbd571378	-0.0525088
138	0xbd78576b	-0.060630243
139	0xbd0de16b	-0.034638803
140	0x3bfeb88f	0.007773466
141	0x3cf0ce37	0.029395206
142	0xbd5f5f6a	-0.054534353
143	0xbd0adf12	-0.033904143
144	0x3daf2511	0.08551992
145	0xbd064a50	-0.032785714
146	0x3c655658	0.013997637
147	0x3cd38eef	0.025824992
148	0xbdb17a59	-0.08665914
149	0xbd4dbc20	-0.050228238
150	0x3bb373e3	0.0054764613
151	0x3ca725d4	0.02040378
152	0x3c4ae5ae	0.0123838615
153	0xbca75876	-0.020427924
154	0x3d9d5e8d	0.0768405
155	0xbd8031ea	-0.0625952
156	0x3c3f2520	0.011666566
157	0x3d8cb2ad	0.06870017
158	0xbd883af7	-0.06651872
159	0xbd7be99c	-0.061502084
160	0x3ca1a38c	0.019731306
161	0xbd77cac0	-0.06049609
162	0xbd86f324	-0.06589344
163	0x3d96fec3	0.07372811
164	0xbcab609d	-0.020920092
165	0xbcea077c	-0.028568022
166	0x3d4e506e	0.050369672
167	0x3d0ed13f	0.03486752
168	0xbd1270b1	-0.035752002
169	0xbd9d558c	-0.076823324
170	0xbd785237	-0.06062528
171	0xbdaebd0e	-0.08532153
172	0x3ba4c430	0.00502827
173	0xbd4f4c91	-0.05061013
174	0x3d335f6e	0.04379218
175	0xbd8b975c	-0.06815979
176	0xbd6abb28	-0.057307392
177	0xbcd6d854	-0.0262262
178	0xbb062600	-0.0020469427
179	0x3d727aae	0.059199028
180	0xbda5af99	-0.08090133
181	0xbd6e5d44	-0.058194414
182	0x3d6bd36b	0.05757467
183	0xbc89fe5c	-0.01684492
184	0xbd85ed40	-0.065393925
185	0xbd057517	-0.03258237
186	0xbd103a31	-0.035211746
187	0x3caefbec	0.02136036
188	0x3cdab890	0.026699334
189	0x3cfb5ccb	0.030683896
190	0x3d3df872	0.046379514
191	0x3c1dda1d	0.009634522
192	0xbc5f9cf0	-0.013648257
193	0xbcd6fc6c	-0.026243411
194	0x3ce88149	0.02838196
195	0x3c912626	0.017718386
196	0xbd1bd6f8	-0.038046807
197	0xbcf94651	-0.030429037
198	0xbd4e1218	-0.050310224
199	0x3d8cc433	0.068733595
200	0xbd2561fe	-0.040376656
201	0xb952ebba	-0.00020114976
202	0x3d3bdf82	0.04586745
203	0x3d69fb13	0.05712421
204	0xbd52cdf8	-0.05146596
205	0xbd0ca519	-0.034337137
206	0xbd36544a	-0.044513978
207	0x3cc97eb2	0.024596546
208	0x3db90363	0.09033849
209	0xbc742a22	-0.014902623
210	0x3d874280	0.06604481
211	0xbcccc164	-0.02499456
212	0xbd9966ad	-0.07490287
213	0x3d04313a	0.03227351
214	0xbd51a5e7	-0.051183607
215	0xbd0c970c	-0.034323737
216	0x3bc51b23	0.006015198
217	0x3d0b19f2	0.03396029
218	0x3c85cb84	0.016332395
219	0x3d7dc602	0.061956413
220	0x3cae4220	0.021271765
221	0xbd3db629	-0.0463163
222	0xbd781afe	-0.060572617
223	0x3db8bf3f	0.09020852
224	0x3faa6e76	1.331496
225	0xbfe33b60	-1.7752495
226	0xbefa0357	-0.48830673
227	0x3dfb7d6b	0.12279781
228	0xbda0f3fa	-0.07859035
229	0xbc1c3bf2	-0.009535776
230	0x3d5e9e4e	0.05435019
231	0xbde06db3	-0.109584235
232	0x3d986b21	0.07442308
233	0xbd2a5488	-0.04158452
234	0xbb816fb6	-0.0039500846
235	0xbd9b7068	-0.07589799
236	0xbcbcd3d0	-0.023050219
237	0x3d06e7ba	0.032935835
238	0xbd998499	-0.07495994
239	0xbd6336b6	-0.0554721
240	0xbcfbfb57	-0.030759497
241	0xbcaa6cd9	-0.020803856
242	0xbd944141	-0.07239009
243	0x3a7e3043	0.00096965226
244	0xbd3eb8c3	-0.04656292
245	0xbb110c20	-0.0022132471
246	0x3d94e47d	0.07270143
247	0xbc7b6f13	-0.015346306
248	0xbcd09824	-0.025463171
249	0xbebd9bc6	-0.37032908
250	0x3eeeb514	0.46622527
251	0xbe293e33	-0.16527633
252	0xbe8bf4e0	-0.27335262
253	0x3d81a8fc	0.06331059
254	0x3f829991	1.0203115
255	0x3e2a09f4	0.1660536

hiddenLayers.0.bias f4 [256]
0	0x3cb44ebf	0.022010205
1	0xbdb4447e	-0.08802126
2	0xbd1ef2a5	-0.038805623
3	0xbda7df3f	-0.08196878
4	0x3c8eabf3	0.017415976
5	0xbdd539c5	-0.10411409
6	0x3d941c68	0.072319806
7	0xbdc1ff17	-0.09472483
8	0x3bbcbb39	0.0057596234
9	0x3c5b7462	0.013394447
10	0xbdbaa47c	-0.09113404
11	0xbd85b5ed	-0.0652884
12	0xbc0255cf	-0.007955029
13	0x3b15c9f8	0.0022855978
14	0xbc72ab13	-0.014811295
15	0xbc8f9ee6	-0.017531823
16	0xbcaccc89	-0.021093624
17	0x3d89c044	0.06726125
18	0xbcde08bf	-0.02710378
19	0xbd345e43	-0.044035207
20	0x3d0b1173	0.033952188
21	0x3d05aef7	0.032637563
22	0x3d1c049a	0.038090326
23	0xbcbe5dfb	-0.023238173
24	0xbd93ebba	-0.07222696
25	0xbda8ffd2	-0.08251919
26	0xbda7e2ba	-0.081975415
27	0xbdb2858b	-0.087168775
28	0xbd88ca64	-0.06679228
29	0x3c6e41b7	0.014542035
30	0xbde6929b	-0.112584315
31	0x3c57c52b	0.013169567
32	0xbdbd9bd0	-0.092582345
33	0xbcc59770	-0.024120063
34	0xbd20e2e3	-0.039278876
35	0xbd3f7b25	-0.0467483
36	0xbd18c1d5	-0.037294228
37	0xbbd5fb20	-0.0065301806
38	0x3ce02f4b	0.027366301
39	0x3dbe57e7	0.0929411
40	0xbda7fe62	-0.082028165
41	0xbd9df5f3	-0.07712927
42	0xbe1a2ed9	-0.15056933
43	0xbd468b83	-0.048472892
44	0xbda41b2f	-0.08012997
45	0xbdc2bb21	-0.09508348
46	0x3ba3808c	0.004989689
47	0x3c905cf6	0.017622452
48	0x3c1d10e1	0.009586544
49	0x3c8d7869	0.01726933
50	0x3d895f60	0.067076445
51	0xbd4862a0	-0.04892218
52	0x3bd58523	0.0065161153
53	0xbcbee8b1	-0.023304315
54	0xbcbe3dcb	-0.023222825
55	0xbd97fafd	-0.07420919
56	0x3c24c668	0.010057069
57	0xbd093baf	-0.033504184
58	0xbb96bd7c	-0.004600225
59	0xbdbfc108	-0.0936299
60	0xbdcefba7	-0.101065926
61	0x3b97fd78	0.00463837
62	0xbce4bec2	-0.027922992
63	0x3cb6e3ca	0.022325415
64	0xbca57747	-0.020198477
65	0xbd3514dc	-0.044209346
66	0x3d63ba7f	0.05559778
67	0x3d345613	0.0440274
68	0x3c9cd475	0.019144276
69	0xbd76afe3	-0.060226332
70	0x3ba67334	0.0050796513
71	0xbde93475	-0.113869585
72	0x3c6f6d9e	0.014613537
73	0xbdcfb622	-0.10142161
74	0x3d75e4a0	0.060032487
75	0xbd9a5d44	-0.0753732
76	0x3ce3ccd0	0.027807623
77	0xbd4262d5	-0.047457535
78	0xbd1156b6	-0.035483085
79	0x3c114160	0.008865684
80	0xbdb72f1c	-0.08944532
81	0xbda93ca2	-0.08263518
82	0xbc7922d9	-0.015206062
83	0xbd9ccb41	-0.07655955
84	0xbd970bcc	-0.07375297
85	0xbcbdacef	-0.02315375
86	0xbdca2682	-0.09870626
87	0x3d3c7e51	0.046018902
88	0xba44f4ef	-0.00075133046
89	0x3d48fb28	0.049067646
90	0xbcec3b40	-0.028836846
91	0x3cbd68be	0.023121234
92	0x3bcc9e0b	0.006244426
93	0xbdee3b61	-0.116324194
94	0xbb4bb92c	-0.0031085713
95	0xbd9e09f6	-0.07716744
96	0x3d41bc12	0.0472985
97	0xbdd5a438	-0.10431713
98	0xbdb47969	-0.0881222
99	0xbdafccb1	-0.08583964
100	0xbdaa69f4	-0.0832099
101	0xbd78a6ee	-0.06070607
102	0xbbfba733	-0.007679844
103	0xbdc595e1	-0.09647728
104	0xbd8bf105	-0.0683308
105	0xbdecde1f	-0.11565804
106	0xbd4f8555	-0.050664265
107	0xbd9e823a	-0.077396825
108	0xbd981c57	-0.074272804
109	0x3da8a1da	0.08233996
110	0xbda3cf3f	-0.079985134
111	0xbd306b7e	-0.043071263
112	0x3d419e0a	0.04726986
113	0xbdc762e9	-0.097356625
114	0xbda6390a	-0.08116348
115	0xbbf93222	-0.0076048533
116	0xbd3af95c	-0.045647964
117	0xbd944e75	-0.07241527
118	0x3da048ff	0.07826423
119	0xbddaa99e	-0.10676883
120	0xbdccc3d7	-0.09998291
121	0x3d2d4f8a	0.042312182
122	0xbcc0eb3a	-0.023549665
123	0x3d234a52	0.0398658
124	0x3c92364f	0.017848162
125	0xbbd99e1a	-0.0066411616
126	0x3d467eb7	0.04846069
127	0xbcc9fe8a	-0.024657506
128	0xbe008cfa	-0.12553778
129	0x3d20664b	0.039160054
130	0x3c029436	0.007969907
131	0xbcf24220	-0.029572546
132	0x3d08c7ed	0.03339379
133	0x3d3ae9f6	0.04563328
134	0xbe1d4484	-0.15358168
135	0xbd2502a0	-0.040285707
136	0x3d7d1aff	0.061793324
137	0x3d3fc29d	0.046816457
138	0x3d8ed534	0.06974259
139	0xbc1f2d6a	-0.009715417
140	0xbd90e92c	-0.07075724
141	0xbc521cd8	-0.01282426
142	0x3cd3d540	0.025858521
143	0xbdaf9ff6	-0.08575432
144	0xbd5e7b9e	-0.05431711
145	0xbdfb5968	-0.12272912
146	0xbd85dbd9	-0.06536073
147	0xbde040e8	-0.1094988
148	0xbdb6a233	-0.08917656
149	0x3cc20c35	0.023687461
150	0x3d5eba10	0.05437666
151	0xbd12a0b7	-0.0357978
152	0x3d842ca7	0.06453829
153	0x3d2ed742	0.042685755
154	0x3d01a05b	0.031647068
155	0x3d45988a	0.048241176
156	0xbd956f32	-0.072965994
157	0xbca2848f	-0.0198386
158	0xbd835825	-0.064132966
159	0x3d542eba	0.051802374
160	0xbd967d99	-0.073481746
161	0xbdd626f1	-0.10456646
162	0xbda02c66	-0.07820968
163	0xbd6cdb3d	-0.05782627
164	0x3d095049	0.03352383
165	0x3d352ef2	0.044234224
166	0xbe231a4d	-0.15928002
167	0xbb0afa1c	-0.0021206206
168	0x3cdf683d	0.027271384
169	0xbcfa8302	-0.030580048
170	0x3cd7d148	0.02634491
171	0x3d2df5ac	0.04247062
172	0x3ce2465c	0.02762144
173	0xbd4d050d	-0.050053645
174	0xbd6f60a8	-0.058441788
175	0xbdafad28	-0.08577949
176	0xbd1adeaf	-0.037810024
177	0xbd6b2425	-0.057407517
178	0xbddb97a4	-0.107222825
179	0xbdb29228	-0.08719283
180	0xbda532bd	-0.08066318
181	0x3d275d48	0.040860444
182	0xbdbdd789	-0.09269626
183	0x3cac98e3	0.021068996
184	0x3c968e77	0.01837848
185	0x3dac0800	0.083999634
186	0x3d51f22e	0.05125635
187	0x3c938fe7	0.018012954
188	0x3c806602	0.015673641
189	0x3c63873e	0.013887225
190	0xbdc4e150	-0.096132874
191	0xbdaeb37e	-0.08530329
192	0xbcd66f9f	-0.026176272
193	0xbd423496	-0.04741343
194	0xbd4e1829	-0.05031601
195	0xbd35b881	-0.04436541
196	0xbd0d34c1	-0.03447414
197	0xbdd1901d	-0.102325656
198	0xbc5cd21c	-0.013477828
199	0x3d426f55	0.047469456
200	0xbe014fb0	-0.12628055
201	0x3d868fb3	0.06570377
202	0x3d1668c1	0.036720995
203	0xbd01cbe9	-0.031688605
204	0xbdde63d0	-0.108588815
205	0xbd216ff1	-0.039413396
206	0x3c7fd2ad	0.015614194
207	0xbd271bd8	-0.04079804
208	0xbdc0da65	-0.094166555
209	0xbd083767	-0.03325596
210	0x3c815483	0.015787369
211	0x3d244238	0.040102214
212	0xbda8e5e8	-0.08246976
213	0xbdfdb89f	-0.12388729
214	0xbdf93f1b	-0.121702395
215	0x3d06eec2	0.03294254
216	0xbd91485a	-0.07093878
217	0xbdd9c1f7	-0.10632699
218	0xbcf03c5b	-0.029325655
219	0xbdbf9e24	-0.09356335
220	0xbe016a25	-0.12638147
221	0x3d3fa1a2	0.046785004
222	0xbd030e11	-0.031995837
223	0x3d07f1a3	0.033189427
224	0xbc6a1351	-0.014286832
225	0xbd66818d	-0.056275893
226	0xbd025bfb	-0.031826
227	0xbd9c4d8a	-0.07631977
228	0x3b4b9e64	0.003106975
229	0xbd8fb222	-0.07016398
230	0x3d8e80e4	0.06958178
231	0xbdc7489c	-0.09730646
232	0x3c090be9	0.008364656
233	0x3d8f4200	0.069950104
234	0xbbfea938	-0.0077716373
235	0xbd0bef73	-0.034163903
236	0x3cef3bc0	0.029203296
237	0xbe0b7f15	-0.13622697
238	0xbd7838a9	-0.06060091
239	0xbdb87912	-0.09007467
240	0xbd715d51	-0.058926884
241	0xbd16809b	-0.03674374
242	0xbc5a0fd2	-0.013309436
243	0xbdb78a50	-0.08961928
244	0xbd85e035	-0.06536905
245	0xbd2ca1a8	-0.042146355
246	0xbd5b6e41	-0.053571943
247	0xbd8c9d54	-0.068659455
248	0xbcd26a1d	-0.025685364
249	0x3d044f1a	0.032302
250	0x3bf4c12a	0.007469316
251	0x3d80374b	0.06260546
252	0xbbd212f1	-0.0064109494
253	0x3c855eca	0.01628055
254	0xbd094aab	-0.033518475
255	0xbd65b662	-0.056082137

hiddenLayers.1.weight f4 [100, 256]
0	0xbca7b4e0	-0.02047199
1	0xbd44926b	-0.047991198
2	0xbfb0a2e1	-1.3799707
3	0xbcd7b0ff	-0.026329516
4	0xbda35770	-0.07975662
5	0xbe888953	-0.2666727
6	0xbe1d4454	-0.15358096
7	0x3e0166f4	0.1263693
8	0xbe5ed7e3	-0.21762042
9	0xbe0353ef	-0.12824987
10	0x3a6e2680	0.00090847164
11	0x3d6fd454	0.0585521
12	0x3e6af201	0.2294388
13	0xbd2e5744	-0.04256369
14	0xbefa2952	-0.4885965
15	0xbe79826e	-0.24366161
16	0xbf03448b	-0.51276463
17	0xbce56184	-0.0280006
18	0xbf0aebdf	-0.5426616
19	0x3c2a03d3	0.010376888
20	0xbe2fbc2b	-0.17161624
21	0xbc09d48a	-0.00841249
22	0xbd26bb78	-0.040706128
23	0xbc6f5220	-0.0146069825
24	0xbeb9f61f	-0.36320588
25	0x3d199307	0.03749373
26	0xbda8708b	-0.08224591
27	0xbe2eda98	-0.17075574
28	0x3ce71b1c	0.028211169
29	0xbf32ba9d	-0.69816
30	0xbf50bd7e	-0.8153914
31	0x3bf98e1c	0.0076158177
32	0x3d33ee18	0.043928236
33	0xbf052161	-0.5200406
34	0xbe09f956	-0.1347402
35	0xbd28e242	-0.0412314
36	0xbf0499fb	-0.51797456
37	0x3d0b1c9e	0.03396284
38	0xbebdada6	-0.37046546
39	0xbd215a96	-0.03939303
40	0x3b77f497	0.0037834996
41	0xbd2391b0	-0.03993386
42	0xbe4db802	-0.20089725
43	0xbca80302	-0.020509247
44	0xbd9dd3f9	-0.07706446
45	0xbe771922	-0.24130681
46	0xbd546700	-0.05185604
47	0xbe12db2b	-0.14341418
48	0xbc4220b8	-0.011848621
49	0x3cfdeb7e	0.03099608
50	0x3d4a8f45	0.04945304
51	0xbe9b49c3	-0.30329713
52	0xbf0cbd13	-0.54976004
53	0xbe626190	-0.2210753
54	0xbee6afca	-0.4505599
55	0x3cfcd0bf	0.030861257
56	0x3e3f3cc5	0.18675525
57	0xbe2997e2	-0.16561845
58	0xbed8925d	-0.42299166
59	0xbed0fd80	-0.40818405
60	0xbb2a3e6f	-0.0025977155
61	0xbeed9a3c	-0.46406734
62	0xbf744788	-0.9542165
63	0xbe026f56	-0.12737784
64	0xbd0795cc	-0.03310184
65	0x3e59d8af	0.21274064
66	0xbeea7d48	-0.45798707
67	0xbee2d93d	-0.44306365
68	0xbd608710	-0.054816306
69	0xbeb14dd9	-0.34629706
70	0xbf1eda9c	-0.6205232
71	0xbe86e106	-0.26343554
72	0xbeaaeb14	-0.33382475
73	0xbca03fa9	-0.019561606
74	0x3e1fb8b0	0.15597796
75	0xbedcd1f4	-0.43128932
76	0xbea6b964	-0.32563317
77	0xbf094293	-0.5361721
78	0xbca81223	-0.02051646
79	0x3ce772a0	0.0282529
80	0x3c70234d	0.014656854
81	0xbe1a8961	-0.15091468
82	0xbe579389	-0.21052374
83	0x3d9f43b0	0.07776582
84	0xbbb9de80	-0.005672276
85	0xbeaf12ae	-0.3419394
86	0xbc2ef8b4	-0.010679413
87	0xbdb8d8e0	-0.090257406
88	0xbeb9b770	-0.36272764
89	0xbe7db6f0	-0.24776816
90	0xbf6a47aa	-0.915156
91	0xbf151995	-0.5824216
92	0xbe92f6c5	-0.28703895
93	0xbe7789ff	-0.24173735
94	0xbee560ec	-0.44800508
95	0xbea07a20	-0.31343174
96	0xbf0a5047	-0.54028744
97	0x3e561f93	0.20910482
98	0xbb118d40	-0.0022209436
99	0x3d069dfe	0.032865517
100	0x3e8ed224	0.278947
101	0xbe08aab5	-0.1334637
102	0x3e1c0e32	0.1523979
103	0xbe7e2df1	-0.24822213
104	0xbdeff62c	-0.117168754
105	0xbf3d1f27	-0.7387566
106	0xbe8d50dc	-0.27600753
107	0x3e2fa5de	0.17153117
108	0xbd6388e8	-0.055550486
109	0x3c2720e7	0.010200716
110	0x3ec9dcea	0.39426357
111	0xbca0ae3e	-0.019614335
112	0x3dbdd477	0.0926904
113	0xbd82e221	-0.06390787
114	0xbd800f54	-0.062529236
115	0xbf63d029	-0.889895
116	0xbd90b7ee	-0.07066332
117	0xbeecf3a9	-0.46279648
118	0xba8b38b3	-0.0010621756
119	0xbde497cb	-0.11161765
120	0xbf2e5a01	-0.68106085
121	0x3e5a4ddc	0.21318763
122	0x3d8ad906	0.06779675
123	0xbeb2c495	-0.34915605
124	0xbf71a83e	-0.9439734
125	0x3e5e35b3	0.21700172
126	0xbd5cbfbe	-0.053893797
127	0x3e01d6e8	0.12679636
128	0xbe8b828a	-0.2724803
129	0x3d177b68	0.036982924
130	0x3e0d1361	0.13776924
131	0xbf126a67	-0.5719361
132	0xbc68e113	-0.014213818
133	0xbf9a9703	-1.2077335
134	0xbe726b7b	-0.23673813
135	0xbe24586e	-0.16049358
136	0x3d4d65a0	0.050145745
137	0xbe87cf68	-0.26525426
138	0xbd9ec6c4	-0.07752755
139	0xbf4dbc2e	-0.80365264
140	0x3d3d49d8	0.046213
141	0xbcdc19b1	-0.02686772
142	0xbc7dfbf0	-0.015501961
143	0xbe7da322	-0.24769261
144	0xbe044165	-0.12915571
145	0x3d6bbbcb	0.05755214
146	0xbdb0acdb	-0.086267196
147	0x3de9323c	0.113865346
148	0x3ed9a83b	0.42511162
149	0xbf2551f9	-0.64578205
150	0x3d31c4bf	0.043400522
151	0xbf265d66	-0.64986265
152	0xbf50edfe	-0.8161315
153	0xbf00ba67	-0.5028443
154	0xbede10cc	-0.4337219
155	0x3d1bea94	0.038065508
156	0xbdc01731	-0.093794234
157	0xbe2532c3	-0.16132645
158	0xbe2508b2	-0.16116598
159	0x3ed251b1	0.4107795
160	0x3d28f9a7	0.041253712
161	0xbef336eb	-0.47502837
162	0x3d21683a	0.03940604
163	0xbeeb560d	-0.4596409
164	0xbd07f499	-0.03319225
165	0x3ca4cf78	0.02011846
166	0xbf3fe4d4	-0.7495854
167	0xbfaa270f	-1.329317
168	0xbe9eb0eb	-0.30994353
169	0xbe681e71	-0.22667862
170	0xbe68cf92	-0.22735432
171	0xbe5d3ab0	-0.21604419
172	0xbe0ff218	-0.14057195
173	0xbd76491a	-0.06012831
174	0xbeb04f9f	-0.34435746
175	0xbe85c45e	-0.2612638
176	0xbee410a0	-0.44543934
177	0x3c948f74	0.01813481
178	0xbee23215	-0.44178835
179	0xbf143559	-0.578939
180	0xbd5513b2	-0.052020736
181	0xbe88d691	-0.267262
182	0x3db4b8e6	0.08824329
183	0xbe7042d8	-0.23462999
184	0x3e8674fd	0.2626113
185	0x3d0dc56d	0.034612108
186	0xbe235dc9	-0.15953745
187	0x3e5542e5	0.208263
188	0xbe3f9a16	-0.18711123
189	0x3c8a7e04	0.016905792
190	0xbf91eb2c	-1.1399894
191	0xbc03b6d3	-0.008039194
192	0xbc953faf	-0.018218843
193	0xbd910324	-0.07080677
194	0xbf0d38ef	-0.55165
195	0xbe9893f9	-0.29800394
196	0xbe942ec8	-0.2894194
197	0x3db56820	0.08857751
198	0xbf1c0ae2	-0.60954106
199	0x3ad1fd40	0.0016020909
200	0xbeb609fe	-0.35554498
201	0x3d79de02	0.06100274
202	0x3d3891b5	0.045060832
203	0xbdd9a56e	-0.10627256
204	0xbe26335e	-0.16230533
205	0x3cfc9b6e	0.030835833
206	0xbf435876	-0.76306856
207	0xbe61f534	-0.22066194
208	0xbd3a3dca	-0.045469083
209	0xbf2d50a0	-0.6770115
210	0x3e6996d1	0.22811438
211	0x3e19d54b	0.15022771
212	0x3cd0f570	0.025507659
213	0xbe580585	-0.21095856
214	0xbe043cc6	-0.12913808
215	0xbd584060	-0.052795768
216	0x3c867670	0.016413897
217	0xbedd2e46	-0.43199366
218	0xbf2efa0b	-0.68350285
219	0xbd2d403c	-0.042297587
220	0xbf0c6ed5	-0.54856616
221	0xbf623760	-0.88365746
222	0xbf34f9ce	-0.7069367
223	0xbf210867	-0.62903446
224	0xbe36b77f	-0.17843436
225	0x3d6d0ea4	0.05787529
226	0x3d3784dd	0.044804443
227	0xbf372029	-0.7153345
228	0xbe646fa1	-0.22308208
229	0xbd12aa99	-0.035807226
230	0xbf4d425d	-0.8017939
231	0x3d64a4de	0.055821292
232	0xbe919db8	-0.28440642
233	0xbf179cf1	-0.5922385
234	0xbeaf7d6d	-0.3427538
235	0xbe8f1adf	-0.2795019
236	0xbf490fb4	-0.78539586
237	0xbec01567	-0.3751633
238	0x3d272d7e	0.04081487
239	0xbea5da22	-0.32392985
240	0x3e9c202c	0.30493295
241	0x3d194e36	0.037428103
242	0xbb669e15	-0.003518944
243	0x3e10958a	0.14119545
244	0xbe2ac17a	-0.16675368
245	0x3c32f118	0.010921739
246	0xbe7cfce8	-0.24705851
247	0xbed3331a	-0.41249925
248	0xbe6d704d	-0.2318737
249	0x3ba11e10	0.004916914
250	0xbf45ee7c	-0.77317023
251	0x3d69e4d4	0.057102993
252	0x3d59b2f5	0.053149182
253	0xbf5dc297	-0.86625046
254	0xbf2cc0b1	-0.67481524
255	0xbeda402b	-0.4262708

hiddenLayers.1.bias f4 [100]
0	0xbf0530ad	-0.520274
1	0xbed45045	-0.4146749
2	0x3e9a4ff3	0.3013912
3	0xbeeb3d44	-0.4594518
4	0xbea7ef89	-0.32799938
5	0x3e0d3268	0.1378876
6	0xbeef438b	-0.4673122
7	0x3e27b8f6	0.16379151
8	0xbed8bd87	-0.42332098
9	0xbdc5bd00	-0.096551895
10	0x3dd06dc1	0.10177184
11	0xbdd48ae0	-0.10378051
12	0xbea0b436	-0.3138749
13	0xbd11ec9c	-0.03562604
14	0xbed67d72	-0.41892582
15	0xbea13475	-0.31485334
16	0xbeefcbd6	-0.46835202
17	0xbec86d55	-0.39145914
18	0xbee3ffbd	-0.4453105
19	0x3e9ce30a	0.30641967
20	0xbe604273	-0.21900348
21	0xbef402f7	-0.47658512
22	0xbedd30a5	-0.43201175
23	0xbe3629e5	-0.17789419
24	0x3ea84260	0.3286314
25	0xbda6f673	-0.08152475
26	0x3f0efe9d	0.5585726
27	0xbe9f8c94	-0.3116194
28	0xbf14292a	-0.5787531
29	0x3d85c0a2	0.065308824
30	0x3e8d35cd	0.2758011
31	0xbe593b90	-0.21214128
32	0xbe837c41	-0.25680736
33	0xbe9e65a8	-0.30936933
34	0x3e159cf7	0.14610659
35	0xbe3cfbb6	-0.18455395
36	0xbed87d39	-0.42283037
37	0xbd50f1dd	-0.05101191
38	0x3c771c40	0.015082419
39	0xbef18ead	-0.47179165
40	0xbedea011	-0.43481496
41	0xbe7e10d9	-0.24811114
42	0xbed61421	-0.41812232
43	0xbed3fb73	-0.41402778
44	0xbdb75d54	-0.08953348
45	0xbeb7eb22	-0.3592158
46	0xbf00b9a7	-0.50283283
47	0xbe78cb5f	-0.2429633
48	0xbefb747d	-0.4911231
49	0x3d8f6797	0.0700218
50	0xbe64ab5b	-0.22330992
51	0xbebc3498	-0.36758876
52	0xbdd90985	-0.10597519
53	0xbebed9ff	-0.37275693
54	0xbe3c0cf1	-0.18364312
55	0xbf02daa9	-0.511149
56	0xbab9a031	-0.0014162121
57	0xbedd95e1	-0.4327841
58	0xbe545b7f	-0.20738028
59	0xbec3fcff	-0.38278958
60	0xbefeae9e	-0.49742597
61	0xbe7e6c1d	-0.2484593
62	0xbdb61461	-0.08890606
63	0xbd910343	-0.070807
64	0xbe07edba	-0.13274279
65	0xbeb97270	-0.3622012
66	0xbe3c1226	-0.18366298
67	0xbe1180d2	-0.14209297
68	0xbe6e7712	-0.23287609
69	0xbec249a9	-0.37946823
70	0xbeb80186	-0.35938662
71	0xbe7bc77b	-0.24587815
72	0x3ceeab78	0.029134497
73	0xbe682265	-0.2266937
74	0xbeda4bd2	-0.4263597
75	0xbe15e507	-0.14638148
76	0xbe91cbf3	-0.28475913
77	0xbe384abd	-0.1799726
78	0x3b79fd94	0.003814553
79	0xbe40edd1	-0.1884072
80	0xbeb33aa9	-0.35005692
81	0xbda67e1c	-0.08129522
82	0x3e57357b	0.21016495
83	0x3f188392	0.5957576
84	0xbda4ba13	-0.08043303
85	0xbf181a38	-0.59415007
86	0xbda617d1	-0.08110011
87	0xbea19e8e	-0.3156628
88	0xbf1139bf	-0.5672874
89	0xbe9d9d8b	-0.30784258
90	0xbedd2e51	-0.431994
91	0xbe127f61	-0.14306404
92	0xbf0aa8b0	-0.54163647
93	0xbf0bfa02	-0.54678357
94	0xbecb7186	-0.3973505
95	0xbde7a254	-0.113102585
96	0xbea11fc2	-0.31469542
97	0xbe286852	-0.16446045
98	0xbe614ce1	-0.22001983
99	0xbe0f8dac	-0.14018887

outputLayer.weight f4 [3, 100]
0	0x3d559270	0.052141607
1	0x3c95754a	0.018244404
2	0x3c74330f	0.014904751
3	0x3cd5f860	0.026119411
4	0xbe292b5f	-0.16520451
5	0x3b16893d	0.0022969984
6	0xbc9f9751	-0.019481333
7	0xbae3e76c	-0.0017387695
8	0xbe18758e	-0.14888594
9	0x3cc99081	0.024605038
10	0x3cb80e67	0.022467805
11	0xb9f046fd	-0.00045829258
12	0xbd88f551	-0.066874154
13	0xbd4e51f3	-0.05037112
14	0x3c11aa94	0.008890767
15	0x3c1325d4	0.008981187
16	0x3bcb0d68	0.0061966665
17	0xbca95fe8	-0.020675614
18	0x3bf2c230	0.007408403
19	0xbb1faba4	-0.002436378
20	0x3cb13a4f	0.021634249
21	0xbdbe39fc	-0.092884034
22	0x3a3cf27f	0.00072077656
23	0xbbd38cdc	-0.0064560007
24	0xbb099600	-0.0020993948
25	0xbbb70d3b	-0.005586294
26	0x39bfeaa2	0.00036605174
27	0xbb51d783	-0.0032019324
28	0xbe0eb5fd	-0.1393661
29	0x3b45d4af	0.0030186584
30	0xbabd78d6	-0.0014455568
31	0xbc739b5f	-0.014868586
32	0x3d3653bf	0.04451346
33	0xbc27955e	-0.010228483
34	0x3c39cfa5	0.01134101
35	0x3cbc1c82	0.022962812
36	0xbdec7913	-0.115465306
37	0xbca4c40d	-0.020113016
38	0x3d18dd9b	0.037320714
39	0x3c02cbfe	0.007983206
40	0xbcffe8ee	-0.031239
41	0x3a0bb85b	0.00053299003
42	0xbd102700	-0.035193443
43	0x3d1801ce	0.037111096
44	0x3d6c987e	0.057762615
45	0xbde94080	-0.113892555
46	0xbce6a37e	-0.028154131
47	0xbb993597	-0.004675578
48	0xbd819fb8	-0.06329292
49	0x3ae8528a	0.0017724794
50	0x3c01b1dd	0.007915941
51	0xbd8540a0	-0.06506467
52	0xbdd05b89	-0.10173709
53	0x3c29f371	0.010372982
54	0xbe69a3a5	-0.22816332
55	0xbe071c0c	-0.13194293
56	0xbabfb51c	-0.0014626118
57	0xbdc355b3	-0.0953783
58	0xbd6d9313	-0.05800159
59	0xbced2847	-0.02894987
60	0x3cda9725	0.0266834
61	0x3caa2653	0.020770228
62	0x3c8514b2	0.01624522
63	0x3d095931	0.033532325
64	0x3b13ee88	0.0022572596
65	0xbdea65ca	-0.11445196
66	0x3bc6e423	0.0060696765
67	0xbad701df	-0.0016403756
68	0x3c8762ad	0.016526544
69	0xbd1f9ab4	-0.038965896
70	0x3cf08729	0.029361324
71	0x3cdb50f1	0.026771994
72	0xbb414cef	-0.002949532
73	0xbd5d894a	-0.054086007
74	0xba836582	-0.0010024759
75	0xbbb48976	-0.0055095507
76	0xbc4963fe	-0.012291906
77	0x3b89bba7	0.004203278
78	0x3c1bb187	0.009502775
79	0xbd8938aa	-0.06700261
80	0xbb9b1761	-0.0047330116
81	0x3c8033a4	0.015649624
82	0x3c966298	0.01835756
83	0x3c9bb3cc	0.019006632
84	0x3a99959b	0.001171756
85	0x3c8e220c	0.01735022
86	0x3c0c3528	0.008557595
87	0xbce6def5	-0.028182486
88	0xbdacdc7d	-0.08440492
89	0x3cc39393	0.02387408
90	0x3cbbbdd3	0.022917664
91	0xbd8ee6fb	-0.0697765
92	0x3d47be1e	0.048765294
93	0xbcd26e44	-0.025687344
94	0xbdb20322	-0.08692004
95	0xbd84322a	-0.064548805
96	0xbe08fb09	-0.13377012
97	0x3d1e7169	0.038682375
98	0x3cd8132e	0.026376333
99	0x3b192749	0.0023369363
100	0xbddafc2f	-0.106926315
101	0x3c037eef	0.008025869
102	0x3c856702	0.01628447
103	0xbd1a8fb3	-0.0377347
104	0x3b76657b	0.0037597108
105	0x3b092f89	0.0020932874
106	0xbde6e7c3	-0.11274674
107	0x3b5160de	0.0031948606
108	0xbc199d24	-0.009375844
109	0x3c92eab6	0.017934185
110	0x3c71dfc7	0.014762825
111	0x3d5e998a	0.054345645
112	0xbd9c410a	-0.07629593
113	0x3cb95611	0.022624047
114	0x3c223d0c	0.00990225
115	0x3b9f16b9	0.0048550037
116	0xbd137df7	-0.0360088
117	0xbe3b77dd	-0.18307443
118	0xba6bd20a	-0.0008995837
119	0xbb6ea721	-0.0036415535
120	0x3ba54d46	0.005044612
121	0xbdbff8d3	-0.09373631
122	0x3cb531da	0.022118498
123	0xbe16042e	-0.14650032
124	0xbbdaad2e	-0.0066734767
125	0xbdbca3f3	-0.09210958
126	0xbbcd9a14	-0.006274471
127	0xbb4c5e24	-0.0031184042
128	0x3b8547ca	0.004067396
129	0xbc810eaf	-0.015754072
130	0xbac6ae36	-0.001515812
131	0x3cd70025	0.026245186
132	0xbd5e5929	-0.05428425
133	0xbe283a62	-0.16428521
134	0x3b2989c3	0.0025869466
135	0x3cd6864e	0.026187088
136	0x3c80c457	0.015718622
137	0xbc7e5bd1	-0.01552482
138	0xbdeb0c48	-0.11476952
139	0xbda4f58b	-0.08054646
140	0x3c07ddb4	0.008292604
141	0x3c482cbb	0.012217696
142	0x3c20a75e	0.009805528
143	0xbe186c6c	-0.1488511
144	0x3d800deb	0.06252655
145	0xbe0a252f	-0.13490747
146	0xbe2aa264	-0.1666351
147	0xbdf3c7b9	-0.119033284
148	0x3ccaa29e	0.024735745
149	0x3b004300	0.0019571185
150	0xbdf4768c	-0.119366735
151	0xbe412fac	-0.18865842
152	0xbca940b1	-0.02066073
153	0x3c556a5e	0.013025848
154	0xbbfc16e4	-0.0076931585
155	0x3bb3b013	0.005483636
156	0x3ae82e53	0.0017714001
157	0xbc314903	-0.01082063
158	0x3bb06b04	0.005383851
159	0x3c7cee83	0.015437725
160	0xbe03ddf8	-0.12877643
161	0xbd8004da	-0.06250925
162	0x3b8f0ed4	0.0043657813
163	0xbc8a5a1f	-0.016888676
164	0xbe1a63a1	-0.15077068
165	0xbe0ecc53	-0.13945131
166	0x3cab4195	0.020905295
167	0xb98667ef	-0.00025635908
168	0x3c092fb9	0.008373194
169	0x3c839bd3	0.016065514
170	0x3c9221a9	0.017838316
171	0x3c7a11bf	0.01526302
172	0x3bb40882	0.0054941783
173	0xbdd19957	-0.102343254
174	0xbd8cba47	-0.06871467
175	0xbe42dec4	-0.19030291
176	0xbce8f4c3	-0.028437024
177	0x3c50a777	0.012735239
178	0x3c0db6b8	0.008649521
179	0x3c72c123	0.014816555
180	0x3c89a57b	0.01680254
181	0xbc1c0f16	-0.009525081
182	0x3c01f311	0.007931487
183	0x3cb17ceb	0.02166601
184	0xbccc9085	-0.024971256
185	0xba3c2313	-0.00071768573
186	0x3c3e445a	0.011612976
187	0xbda284a6	-0.07935457
188	0xbb8b14cf	-0.004244424
189	0xbc55a7cf	-0.013040497
190	0x3a9a5a9b	0.001177627
191	0x3c65dd92	0.014029877
192	0xbb008761	-0.0019611942
193	0xbce9f99c	-0.028561406
194	0x3d02441c	0.031803235
195	0xbd4e1ab6	-0.050318442
196	0x3cc3c30c	0.023896717
197	0xbb91a2f0	-0.0044444725
198	0xbdb3bbbc	-0.08776042
199	0x3a25f7bd	0.00063311664
200	0xbd0f0cd1	-0.034924332
201	0xbda42478	-0.08014768
202	0x3c2ea62e	0.0106597375
203	0xbca5e3f5	-0.0202503
204	0x3d6b4ab1	0.05744428
205	0xbe006b7f	-0.12541007
206	0x3c805bc8	0.015668765
207	0xbe41bb37	-0.18919073
208	0xbca0a8f0	-0.019611806
209	0x3dbaf2b9	0.09128327
210	0x3ca743f4	0.020418145
211	0xbe6b630f	-0.22987007
212	0x3d3b7a79	0.045771096
213	0x3d015810	0.031578124
214	0x3cd843fc	0.026399605
215	0xbd17f010	-0.037094176
216	0x3cacdae8	0.021100476
217	0xbb4c6108	-0.0031185765
218	0x3d8309da	0.063983634
219	0xbe25a7f5	-0.16177352
220	0xbbae658a	-0.005322163
221	0xbd73eb4b	-0.059550565
222	0xbd943f31	-0.07238615
223	0x3b72993b	0.0037017602
224	0xbe446902	-0.19180682
225	0xb881b6df	-6.185262e-05
226	0xbe41d34a	-0.18928257
227	0x3cb7050b	0.022341272
228	0x3d0ffe52	0.035154648
229	0x3d5f4c9a	0.054516412
230	0xbe401816	-0.18759188
231	0x3d80e654	0.062939316
232	0xbdcb9d3e	-0.09942101
233	0xbd559f83	-0.052154075
234	0x3cc193c7	0.023630036
235	0xbb197cc3	-0.002342031
236	0x3c540b8f	0.012942209
237	0x3d22c266	0.039736174
238	0xbe3750b5	-0.17901881
239	0xbc03cdad	-0.008044642
240	0xbde0023b	-0.109379254
241	0xbd7c80b4	-0.06164618
242	0xbd262552	-0.040562935
243	0xbcf85ef0	-0.030318707
244	0x3c73c15d	0.014877644
245	0x3cb63caa	0.022245724
246	0xbd0c20f9	-0.034211133
247	0x3bf13285	0.0073607587
248	0xbb13edb7	-0.002257211
249	0xbe26f5a6	-0.16304645
250	0xbd94468f	-0.072400205
251	0x3d4fbbdf	0.050716277
252	0xbd3df34c	-0.046374604
253	0xbca0804d	-0.019592429
254	0xbe11fad3	-0.14255838
255	0xbdec1b97	-0.115287

outputLayer.bias f4 [3]
0	0x3eb26b6b	0.34847578
1	0x3eb55764	0.35418236
2	0x3ebad176	0.3648793
