DQN/trainedDQN.pt (torch, 71663 bytes, 6 tensors)

hiddenLayers.0.weight f4 [100, 151]
0	0xbd5557b7	-0.052085605
1	0xbc9f67c4	-0.019458659
2	0x3d897f08	0.067136824
3	0x3d388128	0.045045048
4	0xbda40692	-0.08009066
5	0xbbb01270	-0.0053732917
6	0x3d9438ba	0.07237382
7	0x3d808bc0	0.06276655
8	0xbd3e0ba7	-0.04639783
9	0x3da2da34	0.07951775
10	0x3d611304	0.054949775
11	0x3d562a70	0.052286565
12	0xbd4e09c8	-0.050302297
13	0x3bf8c5d0	0.0075919405
14	0xbd9d7fa1	-0.07690359
15	0xbcbe5ca0	-0.023237526
16	0xbce91af2	-0.028455231
17	0x3d843a48	0.06456429
18	0xbd95ae3e	-0.07308625
19	0xbb747b80	-0.0037305057
20	0x3b296fe0	0.0025854036
21	0x3c215c18	0.009848617
22	0xbd3d4cec	-0.046215937
23	0x3c832908	0.016010776
24	0xbc8b9338	-0.017037973
25	0xbd09e661	-0.033666972
26	0x3d96795c	0.07347366
27	0x3d127618	0.035757154
28	0xbd4b431f	-0.04962456
29	0xbd4f5b8c	-0.050624415
30	0x3a30ff80	0.00067519397
31	0x3da27946	0.07933287
32	0x3c8fa8f4	0.017536618
33	0xbd7167f4	-0.058937028
34	0x3d016cbc	0.031597838
35	0xbd7fcbc0	-0.06245017
36	0xbd69b0db	-0.05705343
37	0xbd686f98	-0.05674705
38	0xbd63ae1e	-0.055585973
39	0x3d432088	0.047638446
40	0xbd3169e9	-0.043313894
41	0xbc725a58	-0.014792047
42	0xbd6e0f46	-0.058120035
43	0x3c73f430	0.014889762
44	0xbcf24008	-0.029571548
45	0xbda22c7b	-0.0791864
46	0x3d0ddf30	0.034636676
47	0xbd0d6b31	-0.034526054
48	0xbd7b20d0	-0.06131059
49	0xbda33955	-0.079699196
50	0xbd489ec5	-0.04897954
51	0xbd87add4	-0.06624952
52	0x3d904170	0.07043731
53	0xbcef5d9a	-0.029219437
54	0xbd2c26b7	-0.04202911
55	0xbc9c6e34	-0.019095518
56	0xbd403309	-0.04692367
57	0xbd6b59f3	-0.05745883
58	0xbd34990b	-0.044091266
59	0xbd54f6d2	-0.0519932
60	0xbd302862	-0.043007262
61	0xbd891274	-0.06692973
62	0x3bd17050	0.0063915625
63	0x3cf3c224	0.02975566
64	0x3d921e70	0.07134712
65	0xbbd2d920	-0.0064345747
66	0x3d0c0fb6	0.03419467
67	0xbd8c2622	-0.06843211
68	0xbd3ea556	-0.046544395
69	0x3d2ebb78	0.042659253
70	0xbc234690	-0.009965554
71	0x3d617678	0.05504462
72	0x3d3e7f10	0.046507895
73	0x3b8c4500	0.0042806864
74	0xbc92742c	-0.01787766
75	0xbbbbb240	-0.005728036
76	0xbb457020	-0.0030126646
77	0x3ce93350	0.02846685
78	0xbcabf00c	-0.020988487
79	0x3d387d5c	0.045041427
80	0xbd343a2f	-0.0440008
81	0x3d3dea2c	0.0463659
82	0xbd410660	-0.04712522
83	0xbd9daa5e	-0.076985106
84	0xbc939b30	-0.018018335
85	0xbc62c148	-0.013840027
86	0x3da61e66	0.08111267
87	0x3c0b88b0	0.008516476
88	0x3c2560c8	0.010093875
89	0x3d1823a2	0.037143357
90	0xbd796a14	-0.06089218
91	0x3c669ce8	0.014075495
92	0x3d983a8c	0.07433042
93	0xbd75816a	-0.059937872
94	0x3d63f1bc	0.055650458
95	0x3b77bd00	0.0037801862
96	0x3c3273f8	0.010891907
97	0x3d5a7530	0.053334415
98	0xbc91fae0	-0.017819822
99	0x3d960788	0.07325655
100	0xbd07e371	-0.03317589
101	0xbd0f6d67	-0.035016444
102	0xbc08af78	-0.008342616
103	0xbda3f96d	-0.080065586
104	0xbda562ef	-0.08075511
105	0x3d17f224	0.037096158
106	0xbc7a21b0	-0.015266821
107	0xbd8c3e46	-0.06847815
108	0x3c0fef08	0.008785017
109	0x3bd1db10	0.006404288
110	0xbd9b151e	-0.07572387
111	0xbd77ce06	-0.060499214
112	0xbd15c1bf	-0.036561724
113	0xbcb79cc0	-0.022413611
114	0x3b14b460	0.002269052
115	0xbd77dd88	-0.060514003
116	0xbd284f48	-0.041091233
117	0xbda3a86e	-0.0799111
118	0xbd5ecff8	-0.054397553
119	0x3cf94850	0.03042999
120	0xbcb79434	-0.022409536
121	0xbd439c3d	-0.047756422
122	0x3d58d184	0.052934185
123	0x3bfe2330	0.0077556595
124	0xbca80d70	-0.02051422
125	0xbc99f6e8	-0.018794492
126	0x3d3a93a0	0.045550942
127	0xbcc905fe	-0.02453899
128	0xbd8289dd	-0.063739516
129	0xbce4eb7e	-0.027944323
130	0x3ca647ac	0.020297848
131	0x3d0f0770	0.034919202
132	0x3bab1ed0	0.005222179
133	0x3cdd01a4	0.026978321
134	0xbd873903	-0.06602671
135	0xbd82af13	-0.06381049
136	0x3ca1b8dc	0.019741468
137	0xbd96bfda	-0.073608115
138	0xbd73976e	-0.059470586
139	0xbcfbf7ce	-0.03075781
140	0xbb34f7a0	-0.0027613416
141	0xbce6cb0e	-0.028172996
142	0x3d29ef3e	0.041487925
143	0xbd48ad00	-0.04899311
144	0xbd207a6c	-0.03917925
145	0x3d539190	0.05165249
146	0xbd9c8e6c	-0.07644352
147	0x3ccff4a4	0.025385208
148	0x3c98bf78	0.018645987
149	0xbd946bcb	-0.072471224
150	0xbb2b76c0	-0.002616331
151	0xbcc54b58	-0.024083778
152	0xbdbf0f30	-0.09329069
153	0xbdcb10ac	-0.09915289
154	0xbde8719c	-0.11349794
155	0xbe29164e	-0.16512415
156	0xbd99e9d2	-0.07515301
157	0x3ba1fec0	0.0049436986
158	0xbe310e1b	-0.17290537
159	0xbe0fddfe	-0.14049527
160	0xbd7f9e22	-0.062406667
161	0xbdd62fd8	-0.10458344
162	0xbd95543f	-0.07291459
163	0x3d9511e8	0.07278806
164	0xbdcadaf1	-0.09905041
165	0xbd0c8687	-0.034307983
166	0xbcfa8f6a	-0.030585963
167	0xbdb7390a	-0.08946426
168	0xbdc8d511	-0.09806264
169	0xbcb0dd28	-0.02158983
170	0xbd2cf182	-0.042222507
171	0xbd8e856d	-0.06959043
172	0x3c8c13a0	0.017099202
173	0xbdbbd329	-0.09171135
174	0xbd9b4cf6	-0.075830385
175	0x3d196422	0.03744901
176	0xbdf851f4	-0.12125006
177	0xbdc35334	-0.09537354
178	0xbcf4ea1c	-0.029896788
179	0xbd454da6	-0.048169754
180	0xbdaace7a	-0.083401635
181	0x3d831838	0.06401104
182	0xbe260634	-0.16213304
183	0xbd208fbf	-0.039199587
184	0xbc0d0f48	-0.0086096
185	0xbce4f4a5	-0.027948687
186	0xbe0097a8	-0.12557852
187	0xbab9c580	-0.001417324
188	0xbd11f8c3	-0.03563763
189	0xbcf05f2d	-0.029342258
190	0xbc8a402c	-0.016876303
191	0xbd339125	-0.043839592
192	0xbd5f6875	-0.054542977
193	0xbd7393f6	-0.05946728
194	0xbd2bd52a	-0.041951336
195	0xbd55152b	-0.05202214
196	0xbcd4267a	-0.025897253
197	0xbdd48864	-0.10377577
198	0xbded30e7	-0.11581593
199	0x3d61fcac	0.055172607
200	0xbdb2a886	-0.087235495
201	0xbd83324c	-0.06406078
202	0x3cd302cc	0.02575817
203	0xbd177332	-0.036975093
204	0xbd717f3b	-0.058959227
205	0xbb9902d0	-0.0046695247
206	0xbdbe1c62	-0.09282757
207	0xbe1dc452	-0.15406922
208	0xbc7f2918	-0.015573762
209	0xbd1fa9be	-0.03898024
210	0xbe27a428	-0.16371214
211	0x3d28c6ec	0.04120533
212	0xbd9f93d0	-0.07791865
213	0xbe21d815	-0.15805085
214	0xbc5cc1c0	-0.013473928
215	0xbe28f38b	-0.16499154
216	0xbe10476a	-0.14089742
217	0x3ae4cf40	0.0017456785
218	0xbd9da0ce	-0.07696687
219	0xbd71549f	-0.05891859
220	0xbd26c4aa	-0.040714897
221	0xbe051c95	-0.12999184
222	0xbe087dfa	-0.13329306
223	0xbd0acfa7	-0.03388944
224	0xbe06f876	-0.13180718
225	0xbdbb12cd	-0.09134445
226	0xbd9ad3ea	-0.07559951
227	0xbdd20f45	-0.10256819
228	0xbe0ada98	-0.1355995
229	0x3d7bd05c	0.061478004
230	0xbd52b890	-0.051445544
231	0xbd544a92	-0.05182893
232	0x3d88c7ee	0.066787586
233	0xbe35b212	-0.1774371
234	0xbdea0c36	-0.1142811
235	0xbda45094	-0.080231816
236	0xbd9ed5f3	-0.07755651
237	0x3d13a2ec	0.036044046
238	0x3d8b8164	0.06811789
239	0xbe0728e1	-0.13199188
240	0xbe29af71	-0.16570832
241	0x3d613d98	0.05499038
242	0xbdf40bb1	-0.119162925
243	0xbd86c502	-0.06580545
244	0xbcfb9be8	-0.03071399
245	0xbdbb2815	-0.091385044
246	0xbdefb169	-0.1170376
247	0x3bea6f60	0.00715439
248	0xbe324723	-0.17409949
249	0xbe0151a0	-0.12628794
250	0xbd88888e	-0.06666671
251	0xbe370cd8	-0.17875993
252	0xbd1ff561	-0.03905237
253	0xbbfccd50	-0.007714905
254	0xbd357da0	-0.04430926
255	0xbdad01e1	-0.08447624

hiddenLayers.0.bias f4 [100]
0	0x3da145a8	0.07874614
1	0xbe11d1ba	-0.1424016
2	0xbd180999	-0.037118528
3	0xbe0284dd	-0.12745996
4	0xba8f3a06	-0.0010927327
5	0x3c29a353	0.010353881
6	0xbd49b28e	-0.04924255
7	0xbc2e57a0	-0.010641009
8	0x3d957afa	0.072988465
9	0xbd6a8836	-0.057258807
10	0xbcf7d398	-0.030252263
11	0xbe26d3a6	-0.16291675
12	0xbbdc0ce0	-0.006715402
13	0xbcc54037	-0.024078472
14	0x3d4c18b8	0.04982826
15	0xbd4a0143	-0.04931761
16	0x3d1f390a	0.038872756
17	0x3d3bfb65	0.045894045
18	0xbda87be4	-0.08226755
19	0x3d5daa88	0.05411771
20	0x3c873f80	0.016509771
21	0xbd5ff605	-0.054677982
22	0xbd48b223	-0.04899801
23	0xbd64d91b	-0.05587111
24	0xbd95ab3f	-0.07308053
25	0x3d92e4c0	0.07172537
26	0xbcab3a0c	-0.020901702
27	0xbc890cb4	-0.01672969
28	0xbd4f4ec1	-0.050612215
29	0xbda3be1a	-0.07995243
30	0xbda7ae38	-0.081875265
31	0xbcc7d615	-0.024394074
32	0xbd838e7e	-0.064236626
33	0x3d8833fe	0.06650542
34	0xbe01462e	-0.12624428
35	0x3aa7ae5b	0.0012793051
36	0xbc7310d8	-0.014835559
37	0x3cbcdc8f	0.02305439
38	0xbe1f9878	-0.15585506
39	0xbd7180f5	-0.058960874
40	0xbddbf499	-0.10740013
41	0xbdc1a421	-0.09455133
42	0xbdcdfa5c	-0.10057518
43	0xb9d5004b	-0.00040626744
44	0x3d10cf3e	0.03535389
45	0x3d786f9c	0.060653314
46	0x3bbcfb02	0.005767227
47	0xbc5f5c49	-0.013632842
48	0xbd4dd08e	-0.05024772
49	0xbd43eb37	-0.04783174
50	0x3d296728	0.041358143
51	0xbd41062c	-0.047125027
52	0xbe385fe4	-0.1800533
53	0xbdb3557e	-0.08756541
54	0xbe2cbfaf	-0.16869996
55	0xbdcc7db0	-0.099849105
56	0xbd15b38d	-0.036548186
57	0xbe387008	-0.18011487
58	0xbd87c02c	-0.06628451
59	0xbd541e36	-0.051786624
60	0xbb8a2330	-0.0042156205
61	0xbcb0b488	-0.021570459
62	0xbdeae9d7	-0.11470383
63	0xbd51ee2c	-0.05125253
64	0xbddfe5f8	-0.10932535
65	0xbd85152c	-0.06498179
66	0xbd980600	-0.074230194
67	0xbe083bf3	-0.13304119
68	0xbd9f96c4	-0.07792428
69	0xbdbffe9e	-0.09374736
70	0xbc9ce215	-0.019150773
71	0xbda8d405	-0.082435645
72	0x3d0993de	0.033588283
73	0xbad8c96a	-0.0016539518
74	0xbdd83002	-0.10556032
75	0xbd1bd7cf	-0.038047608
76	0xbd8e5ac0	-0.06950903
77	0x3d03e2a4	0.032198563
78	0xbda146bf	-0.07874822
79	0xbc815fb9	-0.015792714
80	0xbdedb85c	-0.116074294
81	0xbdb2f739	-0.0873856
82	0x3cebd0a4	0.028786011
83	0x3da4462e	0.08021198
84	0xbdb492af	-0.0881704
85	0xbd5187c2	-0.05115486
86	0xbc4e3b30	-0.012587354
87	0x3d6e60dd	0.058197845
88	0x3d7ac211	0.061220232
89	0xbdfac760	-0.12245059
90	0x3d3a3950	0.045464814
91	0xbd110315	-0.03540333
92	0xbcb7aa5c	-0.0224201
93	0xbcd13084	-0.02553583
94	0xbe1ac354	-0.15113574
95	0xbd6e16bc	-0.05812715
96	0x3d076500	0.033055305
97	0x3b861850	0.0040922537
98	0xbe13d624	-0.14437157
99	0xbd9f056b	-0.07764705

hiddenLayers.1.weight f4 [20, 100]
0	0x3c9c3a40	0.019070745
1	0xbd9f5c40	-0.07781267
2	0xbe391704	-0.18075186
3	0xbd1eb5c8	-0.03874758
4	0xbda40a87	-0.080098204
5	0xbd8d5748	-0.06901413
6	0x3b0e1a60	0.0021683201
7	0x3d27f41a	0.041004278
8	0xbd779b0d	-0.060450602
9	0xbd1c6c30	-0.038189113
10	0xbdf8bb0f	-0.121450536
11	0xbcbd58fb	-0.023113718
12	0xbd8125a8	-0.063060105
13	0xbdb10b02	-0.08644678
14	0x3dc1e0b1	0.094666846
15	0xbdbd2a57	-0.09236591
16	0xbdcf4f3b	-0.10122534
17	0xbde97b94	-0.11400524
18	0xbd1d9911	-0.038476054
19	0x3c9b0754	0.018924393
20	0xbe479b1a	-0.1949276
21	0xbc91c302	-0.017793182
22	0x3daa81e1	0.08325554
23	0xbd8b9015	-0.06814591
24	0xbda5a3ac	-0.080878586
25	0x3d720dc2	0.05909515
26	0xbdcd4d46	-0.10024504
27	0xbdce8d6b	-0.10085567
28	0xbe3f18d3	-0.18661813
29	0xbd9b6630	-0.0758785
30	0xbdf53e8c	-0.119748205
31	0xbe06b045	-0.13153179
32	0x3d2e65e6	0.042577647
33	0x3da26c4d	0.07930813
34	0xbe2c6282	-0.16834453
35	0xbd3f7774	-0.04674478
36	0xbd981248	-0.07425362
37	0xbdb26802	-0.08711244
38	0xbe262495	-0.16224892
39	0xbdd266a0	-0.102734804
40	0xbd8d5db5	-0.06902639
41	0xbd7f19db	-0.062280517
42	0xbe3d2c52	-0.18473938
43	0xbd20a9dd	-0.039224494
44	0xbe2d2f26	-0.16912517
45	0xbd0cb266	-0.03434982
46	0xbe268b2c	-0.16264027
47	0xbe0ff304	-0.14057547
48	0x3d7351fa	0.05940435
49	0xbe209db5	-0.1568516
50	0x3d8bc8c3	0.06825402
51	0xbda0ac41	-0.07845355
52	0xbe239de0	-0.15978193
53	0xbdf6fdff	-0.12060165
54	0xbd25bc3b	-0.040462714
55	0xbdc44211	-0.09582914
56	0xbe2b5502	-0.16731647
57	0xbdd1baa5	-0.10240678
58	0xbc98270a	-0.018573303
59	0xbd2c291d	-0.042031396
60	0xbda18295	-0.07886235
61	0xbd834cbe	-0.06411122
62	0xbc4e7b50	-0.012602642
63	0xbd29fc10	-0.04150015
64	0xbe270436	-0.163102
65	0xbdf35710	-0.1188184
66	0xbde7e5db	-0.11323138
67	0xbca339ea	-0.019925077
68	0xbe2ca526	-0.16859874
69	0xbda0ead5	-0.07857291
70	0xbe3ebe67	-0.1862732
71	0xbd379457	-0.044819202
72	0x3dbdd57b	0.09269234
73	0xbe20d941	-0.15707876
74	0xbdfcfb32	-0.12352599
75	0xbd6f9703	-0.058493625
76	0xbe2b1092	-0.1670554
77	0x3dc32d51	0.09530128
78	0xbe218db9	-0.15776719
79	0xbe1fe08f	-0.15613006
80	0xbe12b224	-0.14325768
81	0xbe488ec4	-0.19585711
82	0xbc34fc28	-0.011046447
83	0x3d63601a	0.05551157
84	0xbe2fca2d	-0.17166968
85	0xbdb8a4d7	-0.09015816
86	0xbd0b62e6	-0.034029864
87	0xbe12ccd7	-0.14335953
88	0xbba84eae	-0.0051363325
89	0xbe39c0ed	-0.18140002
90	0xbe0e8402	-0.13917544
91	0xbddcb069	-0.10775835
92	0xbd286eea	-0.0411214
93	0xbe29f968	-0.16599047
94	0xbe2209c9	-0.15824045
95	0xbade2280	-0.0016947538
96	0x3aa54d80	0.0012611598
97	0x3d9ca569	0.07648737
98	0xbd40747d	-0.046986092
99	0x3d6c1e1a	0.057645895
100	0xbd287987	-0.041131523
101	0xbd4a5f63	-0.049407374
102	0xbdee2970	-0.11628997
103	0xbe06af2a	-0.13152757
104	0xbcbcef19	-0.02306323
105	0xbdbd1518	-0.09232539
106	0xbd381117	-0.044938173
107	0xbbaadfe0	-0.0052146763
108	0xbd5e0107	-0.0542002
109	0x3dfc6846	0.12324576
110	0xbdab8022	-0.08374049
111	0xbe0853a7	-0.13313161
112	0x3c08a6a8	0.008340515
113	0xbd9f6754	-0.0778338
114	0xbd97e64e	-0.07416974
115	0xbdd27720	-0.102766275
116	0xbc415305	-0.011799579
117	0xbd28a9ce	-0.041177563
118	0xbd61d03f	-0.05513024
119	0xbdc958b3	-0.09831371
120	0xbceea234	-0.029130079
121	0xbcb741db	-0.02237027
122	0xbbc5b080	-0.0060330033
123	0xbd0c0ef6	-0.034193955
124	0x3d41074f	0.04712611
125	0x3d875757	0.06608456
126	0xbcc5b87c	-0.02413582
127	0xbe2ee931	-0.17081143
128	0xbcb6347e	-0.022241827
129	0xbdb84ca0	-0.0899899
130	0xbe25fbd6	-0.16209349
131	0xbe05883e	-0.13040254
132	0x3dc60299	0.09668464
133	0xb891ac00	-6.946176e-05
134	0xbe00c5df	-0.12575482
135	0xbe3cc74e	-0.18435404
136	0x3db2e73f	0.08735513
137	0xbd957fa3	-0.072997354
138	0xbd976369	-0.07392008
139	0xbe10ee39	-0.14153375
140	0xbe12dfc3	-0.14343171
141	0xbd2bfa4e	-0.041986756
142	0xbdfcdd07	-0.12346845
143	0xbda49ea8	-0.08038074
144	0xbdafc500	-0.08582497
145	0x3d8ac42f	0.067757
146	0xbe39d3ea	-0.18147245
147	0xbddea143	-0.10870602
148	0xbc78f636	-0.01519542
149	0xbd4c63d7	-0.049899902
150	0xbd8aed74	-0.06783572
151	0xbe40f678	-0.1884402
152	0xbd48b9f0	-0.04900545
153	0xbe15af8d	-0.14617749
154	0xbd3013bd	-0.042987574
155	0xbdb2fec5	-0.0874
156	0xbe47c145	-0.1950732
157	0xbd998acd	-0.07497177
158	0xbdaffdf3	-0.08593359
159	0xbc63d8c5	-0.013906662
160	0xbe315138	-0.17316139
161	0xbd3d97aa	-0.046287216
162	0xbda6049f	-0.0810635
163	0xbc8666f8	-0.016406521
164	0xbe3974c5	-0.1811095
165	0xbdb46972	-0.088091746
166	0xbdc7ba1f	-0.09752297
167	0xbd998e02	-0.07497789
168	0xbe19c669	-0.15017094
169	0xbe1f31a8	-0.15546286
170	0xbb95397b	-0.0045539713
171	0xbdc84281	-0.097783096
172	0x3bfcb2d0	0.007711746
173	0xbd3794a4	-0.04481949
174	0xbd3968bd	-0.0452659
175	0xbd81d792	-0.06339945
176	0xbe357d87	-0.17723666
177	0x3db5c711	0.088758595
178	0xbdeaf76e	-0.11472975
179	0xbd2f49f1	-0.042795125
180	0x3e054758	0.13015497
181	0xbe308957	-0.17239891
182	0x3dc9d9b1	0.098559745
183	0xbcbee5a8	-0.023302868
184	0xbc4e7348	-0.012600727
185	0xbe495bcf	-0.19663928
186	0x3d92c5f5	0.071666636
187	0x3dad70a3	0.084687494
188	0xbd2b7690	-0.041861117
189	0x3c150fb5	0.009097983
190	0xbd71d52a	-0.05904118
191	0xbcc70948	-0.024296418
192	0x3d290e12	0.041273184
193	0xbc3fab38	-0.011698537
194	0xbe23b3ba	-0.15986529
195	0xbda36105	-0.079774894
196	0xbd37fcd6	-0.044918858
197	0x3d02b882	0.03191424
198	0xbe38ad4d	-0.18034859
199	0xbbafbbd0	-0.005362965
200	0x3db57601	0.08860398
201	0xbdafea9c	-0.0858967
202	0xbe137016	-0.14398226
203	0xbdb072e3	-0.08615663
204	0xbdb45753	-0.08805718
205	0xbd0b2896	-0.033974253
206	0x3d56e6d2	0.05246622
207	0x3da903d7	0.082526855
208	0xbd0ec966	-0.034860037
209	0xbe21e417	-0.15809666
210	0xbd350a6b	-0.04419939
211	0xbd265575	-0.040608842
212	0xbd5c32ba	-0.053759314
213	0xbc98d191	-0.018654617
214	0x3d8d89d1	0.06911052
215	0xbe4a6091	-0.197634
216	0xbe28f914	-0.16501266
217	0xbd6bd0b7	-0.057572093
218	0x3d21ddb6	0.03951808
219	0x3d27893e	0.04090237
220	0xbe3a061b	-0.18166392
221	0xbc967dbb	-0.0183705
222	0x3d920e7f	0.07131671
223	0xbdbe44d4	-0.09290472
224	0xbe2670fd	-0.16254039
225	0xbcc5640c	-0.024095558
226	0xbdc39704	-0.09550288
227	0xbe2a2af2	-0.16617945
228	0xbdc58254	-0.09643999
229	0xbcd70440	-0.026247144
230	0xbd8b9bd1	-0.06816829
231	0xbe1fc3fb	-0.15602104
232	0x3d80b6f1	0.06284893
233	0xbd77144a	-0.060322084
234	0xbe134e9b	-0.14385454
235	0xbce78f1e	-0.028266486
236	0x3d7ebad2	0.062189884
237	0xbd37e9cf	-0.04490071
238	0xbc24501b	-0.010028864
239	0xbdec4632	-0.11536826
240	0xbe1ba907	-0.15201198
241	0xbd467e57	-0.04846033
242	0xbe0bb438	-0.13642967
243	0xbe37dedc	-0.17956108
244	0xbdfba991	-0.122882016
245	0xbce594a8	-0.028024986
246	0xbd467104	-0.048447624
247	0xbdcbb7a1	-0.09947134
248	0x3e18ab63	0.14909129
249	0xbe28cbc6	-0.16483983
250	0x3ca6f400	0.02038002
251	0xbe36bc53	-0.17845277
252	0xbc0ad585	-0.008473759
253	0xbcf4e950	-0.029896408
254	0xbdb48c0a	-0.08815773
255	0xbe0d7fd2	-0.13818291

hiddenLayers.1.bias f4 [20]
0	0xbdd45ba0	-0.103690386
1	0xbe2ecb5b	-0.17069761
2	0xbdcee814	-0.10102859
3	0xbdb35d75	-0.0875806
4	0xb959cca0	-0.00020770961
5	0xbcbe9483	-0.023264175
6	0xbe449716	-0.1919826
7	0xb9f8738e	-0.0004738834
8	0xbd513f22	-0.0510856
9	0xbdd2568f	-0.10270416
10	0xbd541742	-0.051779993
11	0xbe002e9a	-0.12517777
12	0xbe081967	-0.1329094
13	0xba35b151	-0.0006931024
14	0xbc3c8448	-0.011506148
15	0xbdbfaafb	-0.09358784
16	0xbdd17c1f	-0.10228752
17	0xbe26f192	-0.1630309
18	0xbc699e3d	-0.014258918
19	0xbd9e2f38	-0.0772385

outputLayer.weight f4 [7, 20]
0	0x3e2aa082	0.16662791
1	0xbd94cf6e	-0.072661266
2	0x3de7f9ef	0.11326968
3	0x3e8aae47	0.27086088
4	0xbd865c26	-0.06560545
5	0xbcc85360	-0.024453819
6	0xbd869acf	-0.06572496
7	0xbc1e6dd9	-0.009669744
8	0x3e045ecd	0.12926789
9	0xbc49f6fe	-0.012326954
10	0x3e303888	0.17209065
11	0x3def7da7	0.11693888
12	0xbd8e1012	-0.06936659
13	0x3b799b66	0.003808701
14	0xbea3affc	-0.31970203
15	0x3e239093	0.1597312
16	0x3e0db139	0.13837136
17	0x3e5f195c	0.21787018
18	0x3d9aab7e	0.07552241
19	0x3cf81048	0.030281201
20	0x3e83280f	0.256165
21	0x3e7a72bb	0.24457829
22	0x3e8652c5	0.26235023
23	0x3d9af6d9	0.07566614
24	0xbd9eac41	-0.077476986
25	0x3def7bbb	0.116935216
26	0xbd8efe32	-0.06982078
27	0x3ccae965	0.024769494
28	0x3d0a4076	0.03375288
29	0x3e87d1e8	0.26527333
30	0x3e611d72	0.21983889
31	0xbd27d383	-0.040973198
32	0xbd76f6db	-0.060294013
33	0xbdd99e68	-0.10625917
34	0xbe2c5dbf	-0.16832636
35	0x3b14a618	0.0022682007
36	0x3e50e362	0.2039924
37	0x3ceb0858	0.028690502
38	0x3c7b78d7	0.015348635
39	0xbd46b6ff	-0.048514362
40	0x3d3616f1	0.044455472
41	0x3e02af27	0.12762128
42	0x3a970a96	0.0011523541
43	0xbcd50eba	-0.026007999
44	0x3c8ad194	0.016945638
45	0x3e2edec6	0.17077169
46	0xbd18c6ef	-0.037299093
47	0x3ca11cb1	0.019667001
48	0x3db667f3	0.089065455
49	0x3d992893	0.07478442
50	0xbd08b15d	-0.03337227
51	0xbdc9768c	-0.09837064
52	0x3d895c34	0.067070395
53	0x3b2ddeaa	0.0026530423
54	0xbe17a5d5	-0.14809354
55	0xbd8f7b88	-0.070059836
56	0xbcb62d83	-0.022238499
57	0x3c950b8c	0.018193983
58	0xbe59f86f	-0.21286176
59	0xbc6c9347	-0.0144394105
60	0x3b02e90a	0.0019975328
61	0x3d9318ef	0.0718249
62	0x3d5799c6	0.052636884
63	0xbe8367e7	-0.2566521
64	0xbc4740c4	-0.012161437
65	0xbe90ed09	-0.28305843
66	0xbe92594e	-0.2858376
67	0x3d1569b3	0.036477756
68	0xbe1e6680	-0.15468788
69	0x3a3c0edf	0.0007173847
70	0xbcdcc634	-0.02694998
71	0x3d90d497	0.07071798
72	0x3d921792	0.07133402
73	0x3e497d75	0.19676764
74	0xbe82dcab	-0.2555898
75	0x3cbe89c8	0.023259059
76	0xbe5f79f6	-0.21823868
77	0xba63a840	-0.0008684434
78	0xbe5821ad	-0.21106596
79	0xbdff9fbc	-0.12481639
80	0xbd90c849	-0.07069451
81	0x3d9857c4	0.07438615
82	0x3d6a2d62	0.057172187
83	0xbcb95f0a	-0.022628326
84	0x3cb37965	0.021908471
85	0xbd9d6879	-0.07685942
86	0x3b08639a	0.002081132
87	0x3e282c55	0.16423161
88	0x3e4d208b	0.20031945
89	0x3d331e9d	0.043730367
90	0x3dcb7ca7	0.09935885
91	0x3e630f4a	0.22173801
92	0xbdb37152	-0.087618485
93	0xbcc6f525	-0.024286816
94	0x3d3eb71a	0.046561338
95	0x3df9c692	0.121960774
96	0xbc1485f9	-0.009065145
97	0x3dfbecf3	0.12301054
98	0x3e13cbac	0.14433163
99	0x3d91f7f2	0.0712737
100	0x3d4606ad	0.04834621
101	0x3e54aa59	0.20768107
102	0x3b6c994b	0.0036102112
103	0xbd7a1048	-0.061050683
104	0x3b696901	0.0035615566
105	0x3e0d3acc	0.1379196
106	0xbd6c3c66	-0.057674788
107	0x3bc6c41e	0.0060658595
108	0x3d86549e	0.06559108
109	0x3e89562f	0.26823565
110	0xbe128353	-0.14307909
111	0x3e7ad81d	0.24496503
112	0x3e51f435	0.20503314
113	0xbd01ffd3	-0.031738114
114	0x3d292dc0	0.041303396
115	0x3d639ae7	0.05556765
116	0xbdbf78b2	-0.09349193
117	0x3e8fc0f6	0.28076905
118	0x3c65e59d	0.014031795
119	0xbcbe7a42	-0.023251656
120	0x3e782ffe	0.24237058
121	0x3c1a8cb8	0.009432964
122	0x3e53e4fa	0.20692816
123	0x3df2d1a7	0.11856394
124	0x3e299223	0.16559653
125	0x3e1473a4	0.14497238
126	0x3e8a4147	0.27002928
127	0x3ca893a1	0.020578207
128	0xbda93092	-0.08261217
129	0xbdc88599	-0.09791107
130	0x3d82cc7c	0.063866585
131	0x3bb19140	0.0054189265
132	0x3e09a660	0.13442373
133	0x3a35a227	0.00069287646
134	0x3ce2a8b6	0.027668338
135	0x3d8a5131	0.06753767
136	0xbe1d9313	-0.15388136
137	0x3d9903fd	0.07471464
138	0x3b445800	0.0029959679
139	0xbd0975cf	-0.033559617

outputLayer.bias f4 [7]
0	0x3f730275	0.94925624
1	0x3f730275	0.94925624
2	0x3f73ea14	0.9527905
3	0x3f730275	0.94925624
4	0x3f730275	0.94925624
5	0x3f730275	0.94925624
6	0x3f730275	0.94925624
